checkpoints/TD3_2.pt (torch, 946781 bytes, 105 tensors)

mlp0.0.weight f4 [1, 32]
-0.1738529 0.085419185 -0.06428049 -0.24285439 0.18447062 -0.033582594 -0.051855166 0.19518785
0.060024206 -0.09675702 0.06322072 0.20151512 0.1334537 0.18544924 0.06452174 0.12879322
0.18977165 -0.114833325 0.13699652 -0.05605919 0.22141217 -0.23970246 -0.010455741 -0.09229507
-0.21923 0.23774308 -0.03177649 0.0542652 -0.051696915 0.028991168 0.095102124 -0.19037151
00000000: 7f06 32be 41f0 ae3d 7da5 83bd d2ae 78be
00000010: dee5 3c3e e78d 09bd 1566 54bd 53df 473e
00000020: f1db 753d 8b28 c6bd dd79 813d fb59 4e3e
00000030: 16a8 083e 68e6 3d3e f923 843d 5fe2 033e
00000040: 8053 423e bc2d ebbd d148 0c3e 529e 65bd
00000050: dfb9 623e 9074 75be 8e4e 2bbc 3305 bdbd
00000060: d47d 60be ec72 733e 1128 02bd 3045 5e3d
00000070: 25c0 53bd e37e ed3c e7c4 c23d c0f0 42be

mlp.weight_ih_l0 f4 [128, 80]
0.050773744 0.05645272 -0.013861668 -0.15745722 0.04006389 0.057903174 -0.13057747 -0.19442163
-0.2210111 0.040062737 -0.118456565 -0.060131807 0.12428932 0.07643969 -0.08323941 0.03086182
-0.13721554 -0.023790991 0.049036868 -0.24835454 0.010728047 -0.01574631 -0.009620001 -0.072473496
-0.07017901 -0.07196634 -0.1520119 0.032274824 0.04359118 0.049178712 -0.17845283 -0.053905558
0.009894607 -0.099106 0.05787387 0.030012276 0.07830998 -0.15449134 -0.15901512 -0.12968765
0.11251468 0.09756978 0.022662304 -0.12833074 0.047270734 0.020291338 -0.05732724 0.08087574
0.060421802 0.109125696 0.117968306 0.0890767 -0.021674776 0.009977993 -0.089619435 0.012002963
0.08104788 -0.0031122342 -0.15976912 0.0072119706 -0.1243002 -0.15561913 -0.09868493 0.07542255
-0.11667976 -0.096031904 -0.06860946 -0.17343783 -0.039255846 -0.011616309 -0.15528464 -0.20449212
-0.19150844 -0.0679953 -0.14603668 -0.22394276 -0.10625775 0.088154465 -0.15758747 -0.14285688
0.32409713 0.1693373 0.09856392 0.4567374 0.12065068 0.16441028 0.35004237 0.45576975
0.28677833 0.2040105 0.33680314 0.22136277 0.36801282 0.2867443 0.32157034 0.29031658
0.23820025 0.29078573 0.20967637 0.43945444 0.10568901 0.38627848 0.28098908 0.4585144
0.38843486 0.40260258 0.26901823 0.17170158 0.16806728 0.42559797 0.21286626 0.2889623
0.2973088 0.38436216 0.5014934 0.12946585 0.30300808 0.40519038 0.16333571 0.434741
0.0050405515 0.13290016 -0.06070183 0.011864992 0.13667181 0.074955404 -0.06780367 0.075025745
0.06901677 0.006399486 -0.012814417 0.18681324 -0.009287587 -0.010194176 0.012269119 0.1270489
0.042113792 0.1628553 0.21097526 0.22725041 0.18290976 0.46125767 0.32396078 0.456583
0.18794455 0.39858174 0.394565 0.26848653 0.18647866 0.29082474 0.45148557 0.23377346
0.32390082 0.4343332 0.32294908 0.19867565 0.4794799 0.1934517 0.2374317 0.38893604
0.17529932 0.2831902 0.16782655 0.4149655 0.114391625 0.24793236 0.18923889 0.3969917
0.11225472 0.3381817 0.22242193 0.4168515 0.3722946 0.36798516 0.13090026 0.19334841
0.12152599 0.17946239 0.29841942 0.40472564 0.13674381 0.47097602 0.13680917 0.26019898
0.45645162 0.09986592 0.10609899 0.13914007 0.30244923 0.44490993 0.29192775 0.34598944
0.3222646 0.40655288 0.48441646 0.40798888 0.2084993 0.39420775 0.34174618 0.1943451
0.057797708 0.10377548 -0.08702744 0.030967912 0.101942115 0.12819344 -0.01405108 0.06750485
0.11953752 0.08684645 0.024762845 0.13251756 0.033306897 -0.037326287 0.00566259 0.14323783
0.119953424 0.13523248 0.15139873 0.20151871 0.43577132 0.34934795 0.47024015 0.23651129
0.20119534 0.4580001 0.46760488 0.22857286 0.21949054 0.11971214 0.2631194 0.43336675
0.2172873 0.361273 0.1429686 0.43920913 0.40702364 0.45373106 0.36817363 0.18609272
0.28260812 0.3069955 0.41460988 0.36178774 0.3090115 0.23790225 0.44331765 0.42723832
0.1446548 0.42019498 0.13256292 0.21479334 0.29997507 0.40573022 0.3506682 0.45946506
00000000: 21f8 4f3d f83a 673d 0d1c 63bc 773c 21be
00000010: 091a 243d e12b 6d3d 1ab6 05be 7716 47be
00000020: bc50 62be d318 243d 5b99 f2bd c54c 76bd
00000030: 668b fe3d 6a8c 9c3d 6c79 aabd edd1 fc3c
00000040: 3b82 0cbe 53e5 c2bc e2da 483d a750 7ebe
00000050: b1c4 2f3c 68fe 80bc 359d 1dbc fc6c 94bd
00000060: 03ba 8fbd 1763 93bd 02a9 1bbe 9b32 043d
00000070: aa8c 323d 9e6f 493d 57bc 36be 13cc 5cbd
00000080: fd1c 223c 16f8 cabd 270d 6d3d 4edc f53c
00000090: fc60 a03d fa32 1ebe dcd4 22be d7cc 04be
000000a0: 196e e63d aad2 c73d 4ca6 b93c 2269 03be
000000b0: f59e 413d 053a a63c f8cf 6abd 2ea2 a53d
000000c0: da7c 773d 4b7d df3d 5e99 f13d d86d b63d
000000d0: 4d8f b1bc bc7a 233c 658a b7bd 13a8 443c
000000e0: 6efc a53d a0f6 4bbb 849a 23be 6552 ec3b
000000f0: 1a91 febd 9f5a 1fbe 531b cabd 2377 9a3d
00000100: ccf5 eebd 60ac c4bd 1e83 8cbd b099 31be
00000110: bdca 20bd 5552 3ebc f002 1fbe 6266 51be
00000120: ca1a 44be 1f41 8bbd a48a 15be 4051 65be
00000130: aa9d d9bd 548a b43d 9c5e 21be 1349 12be
00000140: 0ff0 a53e c266 2d3e e1db c93d 7cd9 e93e
00000150: b417 f73d 2b5b 283e c138 b33e a75a e93e
00000160: 9cd4 923e 21e8 503e 7671 ac3e ecac 623e
00000170: 2d6c bc3e 26d0 923e dea4 a43e 60a4 943e
00000180: c4ea 733e dee1 943e 67b5 563e 2c00 e13e
00000190: 7b73 d83d 4bc6 c53e cddd 8f3e 66c2 ea3e
000001a0: efe0 c63e ed21 ce3e c2bc 893e 8ad2 2f3e
000001b0: d419 2c3e fae7 d93e 9df9 593e def2 933e
000001c0: dc38 983e 1ecb c43e df61 003f b292 043e
000001d0: e023 9b3e 1d75 cf3e 7a41 273e 5f96 de3e
000001e0: 362b a53b fb16 083e 7ba2 78bd 6265 423c
000001f0: b2f3 0b3e 3882 993d a7dc 8abd 19a7 993d
00000200: aa58 8d3d c8b2 d13b 8ff3 51bc f84b 3f3e
00000210: f72a 18bc 7905 27bc 6a04 493c 1b19 023e
00000220: 837f 2c3d 8ac3 263e e609 583e 55b4 683e
00000230: b24c 3b3e f729 ec3e 30de a53e 3fc5 e93e
00000240: 8974 403e e812 cc3e 6c04 ca3e 1177 893e
00000250: 43f4 3e3e fbe6 943e 1e29 e73e 4f62 6f3e
00000260: 54d6 a53e ec60 de3e 9559 a53e a171 4b3e
00000270: 647e f53e 3418 463e 4c21 733e a022 c73e
00000280: aa81 333e 4efe 903e b9da 2b3e 5c76 d43e
00000290: 2846 ea3d fbe1 7d3e d7c7 413e 7f42 cb3e
000002a0: cde5 e53d 2726 ad3e 93c2 633e 8f6d d53e
000002b0: 669d be3e 8d68 bc3e b80a 063e 20fd 453e
000002c0: 9ee2 f83d fdc4 373e 6eca 983e 3338 cf3e
000002d0: 9206 0c3e c523 f13e b417 0c3e cd38 853e
000002e0: 07b4 e93e 8186 cc3d 6d4a d93d bc7a 0e3e
000002f0: a0da 9a3e 3ccb e33e 8e77 953e 8725 b13e
00000300: deff a43e b327 d03e 6f05 f83e ebe3 d03e
00000310: d780 553e 99d5 c93e 5bf9 ae3e 6702 473e
00000320: 4abd 6c3d 3d88 d43d 713b b2bd 6bb0 fd3c
00000330: 07c7 d03d 2445 033e 8036 66bc fc3f 8a3d
00000340: 16d0 f43d 8ddc b13d 73db ca3c afb2 073e
00000350: d06c 083d 73e3 18bd 3f8d b93b f0ac 123e
00000360: 24aa f53d 627a 0a3e 4508 1b3e ec5a 4e3e
00000370: 6b1d df3e bcdd b23e 51c3 f03e 0430 723e
00000380: 2706 4e3e fd7e ea3e e869 ef3e 010f 6a3e
00000390: 21c2 603e a32b f53d 96b7 863e 3fe2 dd3e
000003a0: 9080 5e3e c6f8 b83e 5c66 123e 05e0 e03e
000003b0: 6765 d03e 704f e83e 4181 bc3e 178f 3e3e
000003c0: 03b2 903e 842e 9d3e bf47 d43e 3e3c b93e
000003d0: c136 9e3e a69c 733e 88fa e23e fbbe da3e
000003e0: 6320 143e cc23 d73e 93be 073e c9f2 5b3e
000003f0: 5596 993e dfbb cf3e c88a b33e 013f eb3e

mlp.weight_hh_l0 f4 [128, 32]
-0.015110046 -0.15675132 -0.09644238 0.175188 0.10745931 -0.15225916 -0.15557823 -0.05668519
0.020338215 0.17213173 -0.031749893 0.104483366 0.16173458 0.14490345 0.102280535 0.13645634
0.15179329 -0.16918571 0.14267188 0.1742955 0.12535444 0.14580144 -0.06608999 0.10579278
-0.13058996 0.122597806 0.084444836 0.09616964 0.06895231 0.07240053 -0.11244794 0.03453951
0.111949995 0.02295821 -0.14765431 -0.0047951103 0.15453301 0.13200755 0.14278731 -0.14560309
0.055624966 0.052180707 -0.1389476 0.051111292 -0.072642244 0.00088837126 -0.04938719 0.058423918
-0.16004421 0.10321464 -0.004606988 0.04842344 0.053302106 -0.10626194 0.10369366 -0.029806271
0.04484353 0.16028216 0.14518255 0.1457777 0.12133447 0.04527832 0.04420393 0.0007282132
-0.04963784 -0.08168687 0.1470337 -0.15693839 0.0051638107 -0.15600438 0.17032367 0.011365699
0.064101204 -0.11076179 -0.07826733 0.124792226 0.16303475 -0.026744135 0.17249498 -0.10760493
0.030406147 -0.0459581 0.1542217 0.02630408 -0.058573812 -0.063231505 0.011299233 -0.03991018
0.072748244 0.15223809 -0.05186138 0.09388259 -0.07627633 0.036554318 0.06568523 0.061447408
-0.04786533 -0.17254587 0.07705855 0.015001707 -0.017594075 -0.07577734 0.12307383 -0.10408672
-0.12226895 -0.042326648 -0.105231345 -0.08679772 0.060730048 -0.036145326 -0.011781456 -0.10277993
-0.1492722 0.17132713 -0.003849061 0.1583493 -0.015640695 -0.046399064 0.13334192 0.16776003
-0.16515887 -0.026212642 -0.089235164 -0.076500595 0.037912503 -0.04254781 0.065744534 -0.107033245
0.1198971 -0.12897825 0.15893026 -0.08900662 0.15453142 0.10224901 -0.16680793 -0.10540269
-0.042859636 0.14725521 -0.11492636 -0.048622984 -0.04715676 -0.15823308 0.10845349 0.14883594
-0.12716919 0.091973566 0.07902633 0.012775552 -0.08437242 0.01708119 0.14227429 0.099160746
0.125573 -0.12423135 -0.047633566 -0.14058298 -0.14577164 -0.11839817 0.005624518 0.07505209
-0.08553669 -0.108886294 -0.114690214 0.0014346155 -0.05469704 0.13342282 0.099557094 0.030500304
-0.15173544 0.14852943 0.011589856 0.13852082 0.17239 0.13112295 -0.16812389 -0.04997316
-0.02037914 0.060374096 -0.07791713 0.12138168 -0.0115129175 -0.012980239 0.14137268 0.010070399
-0.06715864 -0.12205428 -0.16076091 -0.14151217 0.04962433 0.043249115 0.027796626 0.14806162
0.025438447 0.021855058 -0.03510236 -0.17376916 0.14236546 -0.02392451 -0.089211434 -0.005727588
0.14032818 -0.066557586 0.10043895 0.049879108 0.12468007 -0.04533218 -0.06621866 -0.017596878
-0.028254867 0.09652859 -0.051167663 0.013614423 -0.13905777 0.0047484534 0.094578624 -0.022308495
-0.026746558 -0.09534757 -0.15622747 0.016644001 -0.11210876 -0.12783265 0.13659473 0.13127877
-0.01951163 0.06886135 -0.15658723 -0.090190016 0.06969228 -0.008617935 -0.07054381 0.061449282
-0.08258032 -0.11610428 0.16646928 -0.06261909 -0.071611516 -0.07311924 -0.07930585 -0.036324386
0.056059375 -0.043840896 0.11497631 0.1387455 -0.07536098 -0.12057014 -0.14128546 -0.045118876
-0.15446886 -0.040784914 0.12407741 -0.0035701962 0.0022645502 0.04225363 0.003488621 -0.07205258
00000000: 2090 77bc 6b83 20be 9583 c5bd 7c64 333e
00000010: a013 dc3d d3e9 1bbe e64f 1fbe bb2e 68bd
00000020: 549c a63c 4d43 303e 2d0c 02bd 60fb d53d
00000030: c09d 253e 9261 143e 7578 d13d 36bb 0b3e
00000040: b36f 1b3e 053f 2dbe 9418 123e 857a 323e
00000050: ea5c 003e f94c 153e 305a 87bd e3a9 d83d
00000060: 60b9 05be 8f14 fb3d 6af1 ac3d 97f4 c43d
00000070: de36 8d3d bb46 943d 1b4b e6bd 4d79 0d3d
00000080: 0a46 e53d db12 bc3c b132 17be 4d20 9dbb
00000090: e73d 1e3e fd2c 073e d636 123e fa18 15be
000000a0: 01d7 633d 70bb 553d 4848 0ebe 135a 513d
000000b0: 75c5 94bd 96e1 683a 394a 4abd eb4d 6f3d
000000c0: a1e2 23be 3262 d33d 37f6 96bb a857 463d
000000d0: 4f53 5a3d dc9f d9bd 575d d43d 482c f4bc
000000e0: d9ad 373d 0221 243e bcaa 143e c046 153e
000000f0: 357e f83d c275 393d 2e0f 353d 90e5 3e3a
00000100: 0c51 4bbd 724b a7bd 0190 163e 75b4 20be
00000110: 2f35 a93b 9dbf 1fbe 5469 2e3e 3237 3a3c
00000120: 7e47 833d 14d7 e2bd 9f4a a0bd 1193 ff3d
00000130: 95f2 263e 8416 dbbc 86a2 303e f95f dcbd
00000140: 5016 f93c 903e 3cbd 4bec 1d3e a77b d73c
00000150: 18eb 6fbd 857f 81bd 6b20 393c db78 23bd
00000160: 08fd 943d 4de4 1b3e 996c 54bd 8445 c03d
00000170: c436 9cbd fbb9 153d fa85 863d 47b0 7b3d
00000180: 700e 44bd ddaf 30be e0d0 9d3d b8c9 753c
00000190: 7321 90bc 2631 9bbd 220e fc3d 6b2b d5bd
000001a0: 2568 fabd b55e 2dbd 8883 d7bd 01c3 b1bd
000001b0: 12c0 783d 1f0d 14bd 0207 41bc 497e d2bd
000001c0: d0da 18be 6170 2f3e 8740 7cbb 5226 223e
000001d0: ea20 80bc f20c 3ebd c98a 083e 49c9 2b3e
000001e0: 681f 29be e5bb d6bc edc0 b6bd 58ac 9cbd
000001f0: 244a 1b3d 9d46 2ebd 12a5 863d 3f34 dbbd
00000200: 9c8c f53d e012 04be 9dbe 223e 1a49 b6bd
00000210: 7c3d 1e3e ee67 d13d b3cf 2abe 5edd d7bd
00000220: 968d 2fbd 12ca 163e 835e ebbd e528 47bd
00000230: 7227 41bd da07 22be dd1c de3d 7368 183e
00000240: a438 02be a35c bc3d 8ed8 a13d 8d50 513c
00000250: 73cb acbd daed 8b3c 5ab0 113e ca14 cb3d
00000260: 3596 003e 026d febd 6a1b 43bd fcf4 0fbe
00000270: 2945 15be bd7a f2bd e04d b83b e9b4 993d
00000280: dc2d afbd c7ff debd b4e2 eabd b509 bc3a
00000290: 010a 60bd fe9f 083e 97e4 cb3d c6db f93c
000002a0: 8960 1bbe 1918 183e 61e3 3d3c 67d8 0d3e
000002b0: 0187 303e 1845 063e ab28 2cbe a8b0 4cbd
000002c0: 27f2 a6bc d44a 773d 0493 9fbd f596 f83d
000002d0: ada0 3cbc 11ab 54bc 00c4 103e 51fe 243c
000002e0: 788a 89bd 98f7 f9bd 829e 24be 91e8 10be
000002f0: e242 4b3d fc25 313d c0b5 e33c 779d 173e
00000300: 4a64 d03c 6109 b33c 7ec7 0fbd 8bf0 31be
00000310: 40c8 113e 56fd c3bc 7cb4 b6bd 7eae bbbb
00000320: 31b2 0f3e 584f 88bd f0b2 cd3d 094e 4c3d
00000330: 4458 ff3d 3cae 39bd a69d 87bd 5427 90bc
00000340: c076 e7bc c8b0 c53d 2f95 51bd 070f 5f3c
00000350: 2965 0ebe ea98 9b3b 70b2 c13d 4ec0 b6bc
00000360: 991b dbbc 9645 c3bd 18fa 1fbe 0059 883c
00000370: 4799 e5bd 90e6 02be 7ddf 0b3e f16d 063e
00000380: dbd6 9fbc 2e07 8d3d 6758 20be 8bb5 b8bd
00000390: d3ba 8e3d 3d32 0dbc 4679 90bd 3eb2 7b3d
000003a0: df1f a9bd 15c8 edbd ec76 2a3e 703e 80bd
000003b0: 0fa9 92bd 8abf 95bd 1b6b a2bd e1c8 14bd
000003c0: 849e 653d 8392 33bd b378 eb3d 4d13 0e3e
000003d0: dc56 9abd 7aed f6bd 23ad 10be 92ce 38bd
000003e0: 162d 1ebe 150e 27bd 4c1c fe3d f4f9 69bb
000003f0: d968 143b 2412 2d3d 59a1 643b 4e90 93bd

mlp.bias_ih_l0 f4 [128]
0.1560192 0.406672 0.4397733 0.3494413 0.3614332 0.48459193 0.32995787 0.4249522
0.4418502 0.49823308 0.261246 0.30160195 0.20557669 -0.0026217597 0.3021553 0.35419935
0.5497237 0.30684227 0.3833365 0.32433146 0.24895616 0.33462366 0.41110888 0.46315753
0.23902105 0.31375894 0.35779566 0.24050702 0.21795145 0.4175732 0.51030356 0.25104302
0.15295784 0.11868727 0.011486196 0.10903217 0.16507843 -0.09125136 -0.052079596 0.012152032
-0.088648625 -0.14535674 0.06103462 0.011503519 0.12490398 0.07928754 0.12106299 0.0051963483
0.07877838 -0.010495302 -0.1766235 0.07765026 -0.075184874 -0.1089704 0.062277343 -0.044201486
-0.16846044 0.021066891 0.060898867 0.08521265 0.14356911 0.0701989 0.061000418 -0.14661019
0.11494903 -0.08138184 -0.272095 0.12826818 0.14341372 0.35514724 -0.37467834 0.37200344
0.088615865 0.102528706 -0.21661657 -0.23990612 0.33794123 -0.034044143 -0.09250821 -0.17099932
0.3765109 -0.15939884 0.35649022 0.21645853 0.26637053 0.4362049 -0.28549147 -0.16053349
0.34554303 0.3845201 0.33820084 -0.28644606 0.16537951 -0.23538263 -0.38345504 -0.37054583
-0.026413292 0.48766026 0.47685674 0.28305224 0.3465366 0.07675166 0.330828 0.4110669
0.28554025 0.24291685 0.4539799 0.2520217 0.25524896 0.04222168 0.2787662 0.30302864
0.40509373 0.32182035 0.51466924 0.51050824 0.17554608 0.30467388 0.3903176 0.40856278
0.23970719 0.39557347 0.12904249 0.46977916 0.29455188 0.3913903 0.25501856 0.37153316
00000000: 7fc3 1f3e 5037 d03e f729 e13e f8e9 b23e
00000010: c60d b93e 6f1c f83e 3df0 a83e 5693 d93e
00000020: 303a e23e 6818 ff3e 09c2 853e 926b 9a3e
00000030: b282 523e d4d1 2bbb 19b4 9a3e 9e59 b53e
00000040: b1ba 0c3f 6e1a 9d3e af44 c43e c60e a63e
00000050: 5dee 7e3e cb53 ab3e dd7c d23e fc22 ed3e
00000060: efc1 743e 03a5 a03e fe30 b73e 7947 763e
00000070: aa2e 5f3e 28cc d53e 41a3 023f b688 803e
00000080: fba0 1c3e 5012 f33d 9930 3c3c 424c df3d
00000090: 520a 293e fee1 babd 6a51 55bd 5119 473c
000000a0: 698d b5bd 66d8 14be 70ff 793d 4179 3c3c
000000b0: a8cd ff3d 8161 a23d dfef f73d 2146 aa3b
000000c0: 8f56 a13d 7df4 2bbc cadc 34be 1907 9f3d
000000d0: 87fa 99bd e02b dfbd 8716 7f3d 9e0c 35bd
000000e0: e580 2cbe 7994 ac3c 1771 793d f883 ae3d
000000f0: c803 133e 71c4 8f3d 93db 793d fb20 16be
00000100: 666a eb3d 86ab a6bd 0950 8bbe bc58 033e
00000110: 0cdb 123e dcd5 b53e d7d5 bfbe 3c77 be3e
00000120: 3c7c b53d 92fa d13d bcd0 5dbe f3a9 75be
00000130: a206 ad3e df71 0bbd f274 bdbd 721a 2fbe
00000140: 09c6 c03e 7339 23be e385 b63e 4ea7 5d3e
00000150: b861 883e 4056 df3e f02b 92be e462 24be
00000160: 04eb b03e d2df c43e a928 ad3e 0fa9 92be
00000170: 3f59 293e 2508 71be 3854 c4be 2fb8 bdbe
00000180: b060 d8bc 9bae f93e 9126 f43e 39ec 903e
00000190: 3f6d b13e f92f 9d3d 4a62 a93e 5c77 d23e
000001a0: 5532 923e 32bf 783e 0e70 e83e fd08 813e
000001b0: feaf 823e a4f0 2c3d 72ba 8e3e 9226 9b3e
000001c0: 7268 cf3e a3c5 a43e 5dc1 033f abb0 023f
000001d0: 5ac2 333e 37fe 9b3e b5d7 c73e 242f d13e
000001e0: cd75 753e 9b88 ca3e b723 043e e586 f03e
000001f0: 81cf 963e 4f64 c83e cb91 823e 9839 be3e

mlp.bias_hh_l0 f4 [128]
0.010094136 0.29117692 0.279816 0.22737515 0.416714 0.32062235 0.32668427 0.5120018
0.429837 0.4162839 0.3069735 0.40332353 0.46933153 0.057146978 0.48236206 0.5617044
0.34647915 0.3300919 0.3157464 0.24619669 0.02308949 0.5563007 0.2728685 0.27588248
0.52391344 0.30912742 0.33569348 0.5579902 0.33770853 0.44384617 0.19942218 0.55715835
0.13725606 -0.14244178 0.057386577 -0.047860906 -0.1241946 -0.078430206 0.16693494 0.07893095
-0.05012868 0.11510686 -0.05491844 0.0025671646 0.01660533 0.14132084 0.11994894 -0.17415103
0.09488277 0.08977489 0.06051495 -0.17611842 -0.12852864 -0.09701528 0.05722402 -0.15953393
-0.023897473 -0.12995598 0.09996741 -0.14882617 -0.1434742 -0.026946418 0.17232537 0.07080297
0.30172777 -0.37637705 -0.35029095 0.21177416 0.3240966 0.25786874 -0.069454014 0.33938947
0.3717288 0.08253512 -0.34102535 -0.29330757 0.28437597 -0.06667917 -0.14488254 -0.29535407
0.29123622 -0.19452383 0.092726365 0.31981272 0.08310224 0.17459902 -0.17620257 -0.27423882
0.18364626 0.3392697 0.1355982 -0.40750664 0.23482235 -0.30012313 -0.3971029 -0.27024993
-0.06795248 0.5118162 0.56446624 0.25452426 0.49498197 0.23192266 0.22186165 0.47406894
0.54057056 0.34199896 0.3702942 0.3519396 0.35236198 0.12649378 0.36383522 0.3625008
0.52817345 0.31800023 0.507641 0.4428848 0.09295764 0.42230073 0.4011902 0.51630414
0.48186183 0.44125107 0.36059147 0.3911955 0.54016995 0.269417 0.32730386 0.35704708
00000000: e061 253c 2415 953e 0b44 8f3e 08d5 683e
00000010: 8a5b d53e 9d28 a43e 2943 a73e 8d12 033f
00000020: 9813 dc3e 2a23 d53e a12b 9d3e 6c80 ce3e
00000030: 394c f03e f312 6a3d 29f8 f63e dccb 0f3f
00000040: b765 b13e ce01 a93e 83a9 a13e fc1a 7c3e
00000050: 2c26 bd3c b969 0e3f 6cb5 8b3e 7840 8d3e
00000060: 311f 063f f345 9e3e 04e0 ab3e 72d8 0e3f
00000070: 22e8 ac3e ce3f e33e 5435 4c3e eea1 0e3f
00000080: da8c 0c3e 42dc 11be 300e 6b3d cc09 44bd
00000090: bd59 febd 04a0 a0bd fef0 2a3e 8da6 a13d
000000a0: bb53 4dbd 25bd eb3d 28f2 60bd e03d 283b
000000b0: e707 883c 69b6 103e caa7 f53d a654 32be
000000c0: e651 c23d e6db b73d 86de 773d 6358 34be
000000d0: 039d 03be f2af c6bd bc63 6a3d dd5c 23be
000000e0: a2c4 c3bc 2e13 05be b7bb cc3d e365 18be
000000f0: e7ea 12be bcbe dcbc 1076 303e 2601 913d
00000100: 107c 9a3e 7eb4 c0be 5659 b3be 53db 583e
00000110: fdef a53e 5f07 843e e83d 8ebd 75c4 ad3e
00000120: 3d53 be3e 2c08 a93d e09a aebe 692c 96be
00000130: ba99 913e 178f 88bd 175c 14be a638 97be
00000140: ea1c 953e 4131 47be 52e7 bd3d 7ebe a33e
00000150: 8231 aa3d 16ca 323e 726e 34be 0869 8cbe
00000160: c40d 3c3e c2b4 ad3e 41da 0a3e b6a4 d0be
00000170: 4575 703e bda9 99be 1251 cbbe 335e 8abe
00000180: ab2a 8bbd 6306 033f dc80 103f 0151 823e
00000190: 476e fd3e 227d 6d3e b32f 633e 2ab9 f23e
000001a0: d562 0a3f 7d1a af3e 3497 bd3e 6d31 b43e
000001b0: ca68 b43e 9687 013e 9c48 ba3e b499 b93e
000001c0: 6036 073f edd0 a23e c3f4 013f ccc1 e23e
000001d0: 9360 be3d cd37 d83e cd68 cd3e 822c 043f
000001e0: 98b6 f63e a9eb e13e 729f b83e c74a c83e
000001f0: 9448 0a3f 06f1 893e 5f94 a73e e0ce b63e

mlp.weight_ih_l1 f4 [128, 32]
0.094599545 -0.28002834 -0.2809089 0.24191712 0.24745399 0.10114161 -0.27089596 0.120061144
-0.016703563 0.0091819465 -0.25457966 -0.1350732 0.108612314 -0.08267258 -0.2511079 -0.28471315
0.24572766 -0.12611832 0.05155599 0.20353054 0.13487138 0.15179682 -0.22195534 -0.24258141
0.17858964 0.14291045 -0.070926525 0.01365992 0.24393037 -0.09650087 -0.020013776 -0.14950448
-0.12188032 -0.07834535 0.0015875393 -0.0019801978 0.018605204 0.011495054 -0.0720417 0.21931356
0.16623355 -0.016680658 -0.15354994 -0.22514108 0.008374875 0.050675895 -0.053947452 -0.107126884
-0.019174965 -0.076552466 0.12514773 0.05744298 0.08029622 0.13064346 -0.21730705 0.0035577049
0.25898603 0.24602315 0.19511418 -0.038539562 0.11190791 -0.025062 -0.26423293 -0.22313263
0.043082915 0.011860751 -0.27888736 0.21799125 0.18157746 -0.016819736 -0.14589472 0.087091945
0.1927697 0.23357548 -0.118790776 -0.030324182 0.24001509 0.018861804 -0.13012657 0.009476929
-0.020297915 -0.16011605 0.23356473 0.08600342 0.13099892 0.22118418 0.0049240817 0.022778427
0.17051227 0.26883167 0.18280451 0.07049119 0.016297812 -0.005967887 -0.1938442 -0.011872361
0.102830015 -0.057444923 -0.03161002 0.0031968441 -0.078059494 0.02983265 0.018572452 0.04066678
0.24536628 0.04919037 -0.20131803 -0.12636396 0.19895723 0.041691408 -0.06173726 0.049310416
-0.054277956 0.0034856882 0.05591276 -0.06802771 -0.12936983 0.00029280852 0.048443027 -0.07291518
0.18798798 0.03679331 0.16579176 -0.024148725 -0.0077506127 -0.07704063 -0.20367815 -0.19947238
-0.028139379 -0.053581644 -0.040618908 0.27333558 0.106438905 -0.08515405 -0.24641235 0.016789243
0.047742456 0.2278688 -0.20736352 -0.10126573 0.19192274 -0.05109527 -0.08947165 -0.0018813667
0.07321638 0.054056853 0.13394217 -0.009917103 0.18110572 0.13020203 -0.09815833 -0.17210737
0.10651248 0.089776956 0.06364038 -0.22433048 0.1416356 0.011257653 0.07430399 -0.12886722
0.006562807 -0.10212302 -0.26298165 0.20301816 -0.028267516 0.15651858 -0.113437645 0.22495617
0.040301666 0.172612 -0.2743097 -0.26753312 0.25325373 0.103600726 -0.10551966 -0.059779506
0.16348782 -0.21358755 0.24875437 0.19691204 0.053572897 -0.0012872355 -0.26108783 -0.104573324
-0.05909535 -0.04758103 0.17535584 -0.2508525 0.28046682 -0.029291755 -0.014997589 -0.16593523
0.015401833 -0.05406357 0.017657477 0.17064975 -0.059071355 -0.08505585 0.027566846 0.064339414
0.08252369 0.22536312 -0.2873748 0.05281596 -0.0504113 0.14534283 0.033916287 -0.21372277
0.22190481 -0.23241213 0.27375925 0.12927912 0.010542419 0.21982457 0.06764596 -0.14915234
0.11730846 -0.04777679 0.2534881 -0.19098116 0.15427238 -0.21098888 0.042804215 -0.025464348
0.036309596 -0.048387375 -0.05079578 0.057591055 0.06303414 -0.036185972 -0.20682518 -0.015323826
0.2586291 0.18368177 -0.2625173 0.061379448 -0.07739192 0.2107067 -0.25838193 -0.26107624
0.04627861 -0.04833403 0.2749959 -0.04847978 0.11525514 0.13155113 -0.19605179 0.04482717
0.24733129 0.07109613 0.022690114 -0.18319257 -0.012728463 -0.20274657 -0.26412535 -0.09768486
00000000: 68bd c13d e05f 8fbe 4bd3 8fbe 1fb9 773e
00000010: 9464 7d3e 5523 cf3d e0b2 8abe 9ee2 f53d
00000020: e9d5 88bc e06f 163c 4458 82be a150 0abe
00000030: 2270 de3d 3e50 a9bd 3791 80be ecc5 91be
00000040: 08a0 7b3e 2925 01be 602c 533d 4f6a 503e
00000050: b91b 0a3e a070 1b3e 4348 63be 4367 78be
00000060: 34e0 363e 1e57 123e ed41 91bd dbcd 5f3c
00000070: e2c8 793e 40a2 c5bd eef3 a3bc b417 19be
00000080: 649c f9bd 8773 a0bd fb14 d03a 35c6 01bb
00000090: f169 983c c055 3c3c 998a 93bd bc93 603e
000000a0: 2139 2a3e e0a5 88bc 323c 1dbe 628b 66be
000000b0: c636 093c 8791 4f3d 01f8 5cbd 5765 dbbd
000000c0: d114 9dbc 8ac7 9cbd ba26 003e 5549 6b3d
000000d0: 5872 a43d 66c7 053e bd85 5ebe 6228 693b
000000e0: d199 843e 7eed 7b3e 03cc 473e a9db 1dbd
000000f0: f92f e53d d34e cdbc 8a49 87be e17c 64be
00000100: b677 303d 9853 423c 53ca 8ebe 1939 5f3e
00000110: 71ef 393e 8bc9 89bc 6d65 15be 435d b23d
00000120: 6c65 453e 692e 6f3e 9448 f3bd 6b6a f8bc
00000130: 84c6 753e 1284 9a3c e63f 05be 1f45 1b3c
00000140: d047 a6bc 76f5 23be 982b 6f3e 9022 b03d
00000150: 9524 063e 1b7e 623e 315a a13b d399 ba3c
00000160: c59a 2e3e 4ea4 893e 1b31 3b3e af5d 903d
00000170: fd82 853c 448e c3bb 187f 46be 4b84 42bc
00000180: 8b98 d23d 5e4b 6bbd 8279 01bd 2582 513b
00000190: a8dd 9fbd 9a63 f43c 4125 983c 3692 263d
000001a0: 4c41 7b3e d77b 493d 5026 4ebe 8e65 01be
000001b0: 72bb 4b3e 9cc4 2a3d 36e0 7cbd b8f9 493d
000001c0: 9052 5ebd 2570 643b c704 653d 1d52 8bbd
000001d0: 8679 04be 1884 9939 326c 463d 8e54 95bd
000001e0: ec7f 403e 95b4 163d 51c5 293e 8cd3 c5bc
000001f0: daf8 fdbb 7ac7 9dbd 0191 50be 7d42 4cbe
00000200: 8e84 e6bc 6d78 5bbd 0360 26bd a4f2 8b3e
00000210: a4fc d93d 3f65 aebd 8553 7cbe 9889 893c
00000220: 988d 433d 7056 693e 1a57 54be 6864 cfbd
00000230: 6587 443e 4649 51bd ea3c b7bd 3198 f6ba
00000240: 78f2 953d b86a 5d3d 2328 093e 587b 22bc
00000250: c773 393e ae53 053e 3c07 c9bd ea3c 30be
00000260: 3723 da3d fbdc b73d e355 823d e4b6 65be
00000270: ec08 113e 0572 383c b12c 983d c5f5 03be
00000280: d10c d73b e025 d1bd 88a5 86be fee3 4f3e
00000290: 4791 e7bc 6846 203e ff51 e8bd e95a 663e
000002a0: 5c13 253d 33c1 303e 5272 8cbe 1afa 88be
000002b0: 79aa 813e 9e2c d43d b11a d8bd 5bdb 74bd
000002c0: 5a69 273e b2b6 5abe 77b9 7e3e 4fa3 493e
000002d0: 416f 5b3d 75b8 a8ba 4ead 85be 8a2a d6bd
000002e0: f70d 72bd 53e4 42bd 7b90 333e bd6f 80be
000002f0: 5999 8f3e 43f5 efbc 73b8 75bc edea 29be
00000300: f857 7c3c c371 5dbd 6aa6 903c cfbe 2e3e
00000310: cef4 71bd c331 aebd ded3 e13c 62c4 833d
00000320: 2e02 a93d 97c5 663e ca22 93be 8c55 583d
00000330: 147c 4ebd c0d4 143e ceeb 0a3d 24da 5abe
00000340: 043b 633e 72fd 6dbe 2c2a 8c3e bf61 043e
00000350: 1cba 2c3c b119 613e f789 8a3d 64bb 18be
00000360: 6b3f f03d 98b1 43bd 31c9 813e 9190 43be
00000370: 94f9 1d3e 780d 58be 7953 2f3d 9c9a d0bc
00000380: 5fb9 143d d731 46bd 3c0f 50bd 99e4 6b3d
00000390: 0b18 813d be37 14bd fbc9 53be c910 7bbc
000003a0: 096b 843e 1317 3c3e ab68 86be 0469 7b3d
000003b0: a87f 9ebd 7fc3 573e a34a 84be c9ab 85be
000003c0: a48e 3d3d e7f9 45bd 43cc 8c3e bc92 46bd
000003d0: e30a ec3d 57b5 063e cdc1 48be b29c 373d
000003e0: 6a44 7d3e d99a 913d 9ee0 b93c d596 3bbe
000003f0: 0b8b 50bc cc9c 4fbe 703b 87be 000f c8bd

mlp.weight_hh_l1 f4 [128, 32]
0.11168782 -0.08309264 -0.13985443 0.10867742 -0.08989276 0.072971724 -0.078018874 0.07040193
-0.03843192 0.12789573 0.115330994 0.14519243 0.17584033 -0.010716089 -0.081790425 -0.17310458
-0.02671773 0.061607394 0.051441893 0.004921424 0.11950642 0.038514655 -0.0897003 -0.10830741
0.14226738 -0.16282411 0.0067417677 -0.079840966 0.12143095 0.0016650534 -0.002918901 0.026484383
0.06064786 0.014550293 0.021024175 -0.10584007 -0.1730707 0.15997767 -0.17348222 0.14808601
-0.15044652 -0.14042811 -0.08680337 0.016174253 -0.13166389 0.13988133 0.13941656 -0.016498215
0.043778963 0.050387777 0.074115545 -0.012275733 0.1676083 -0.1623503 -0.059905864 0.17516653
0.107313395 0.021124674 0.12742487 0.15624593 0.014158559 -0.074979834 -0.12339031 -0.17104428
-0.033433788 0.044738837 0.01389984 -0.118796244 0.008318376 0.0006300532 -0.035938174 -0.1515024
-0.08179211 -0.06028487 0.11698218 -0.027994169 0.044044193 -0.047451008 -0.09539094 0.0582233
-0.065375574 0.08604511 -0.13467728 0.06901957 0.05356765 0.06629758 0.17127116 0.04293118
0.04464959 -0.15413503 0.05291543 -0.044940803 0.0959053 -0.060655426 -0.14981458 0.12957656
0.0574494 -0.03586471 -0.08401422 -0.048096992 -0.087147206 -0.13155086 -0.1137405 0.12812895
-0.03878138 -0.12993525 -0.11561028 -0.16803819 -0.16459419 0.074128844 -0.1452122 -0.1241715
-0.06203386 -0.11025714 -0.0205959 -0.017865775 -0.17216165 -0.00079817703 -0.004743754 -8.345076e-06
-0.17492531 -0.08595506 0.13994275 0.056329682 0.032103337 -0.16853079 0.004277779 -0.1700212
0.12895986 0.05147618 -0.029824669 -0.023026425 0.09017655 -0.091078915 -0.096664175 -0.1250363
0.121495366 0.16129321 -0.124487035 0.03819459 0.009082266 0.17118241 0.03503482 -0.16717248
0.1724862 -0.120677486 -0.15258661 0.15680297 0.120541714 0.101733215 -0.083385706 -0.06994822
0.08197147 0.15729164 -0.08596168 0.14291924 0.12415659 0.03299782 -0.050795086 0.12693183
0.1315451 -0.011108919 -0.12227823 -0.071214244 -0.1588312 -0.052600447 -0.0011309896 -0.027653832
-0.047799014 0.15625831 -0.091909796 0.11639667 0.07711238 -0.061468102 -0.13132736 0.111853875
0.15433478 0.11409373 0.15659638 -0.073294826 -0.100960456 0.106880486 -0.034262836 -0.12631573
0.024217831 0.07418745 0.028740084 -0.16692284 -0.036822036 0.14524226 -0.0543774 -0.16473912
-0.040618982 -0.17277652 0.12110469 -0.0745433 -0.157896 0.13279937 0.08575834 0.10242573
0.15209462 0.059637535 -0.12074613 -0.16296823 -0.041066583 0.11388525 -0.16790742 0.029661056
0.09489592 -0.17237966 -0.00815295 0.020459535 0.045106653 0.09581209 -0.008522978 0.003535657
0.13557754 -0.13021418 -0.044453166 0.06575795 -0.06904151 0.031119231 -0.15007196 -0.06658437
0.037546605 0.10425166 -0.05621182 0.057043463 -0.076860026 -0.14364944 0.04172833 -0.111819
0.16611017 0.097437404 -0.15664765 0.06611298 0.11258289 0.053372722 -0.15207687 -0.039085828
0.05035897 0.054112338 0.0150728505 -0.14803153 -0.08542066 0.033106983 0.00956607 -0.08353265
-0.020155044 -0.10575725 0.16783494 -0.16410996 -0.16859907 0.0829062 0.089705475 -0.06229405
00000000: 95bc e43d 792c aabd 0036 0fbe 4492 de3d
00000010: b219 b8bd 3372 953d 5cc8 9fbd e32e 903d
00000020: ca6a 1dbd 19f7 023e a832 ec3d 53ad 143e
00000030: 7d0f 343e 8992 2fbc bd81 a7bd 5442 31be
00000040: 24df dabc 0958 7c3d bcb4 523d e643 a13b
00000050: c8bf f43d 8bc1 1d3d cab4 b7bd 46d0 ddbd
00000060: 8aae 113e 5dbb 26be 0cea dc3b a983 a3bd
00000070: cab0 f83d ec3d da3a 084b 3fbb c7f5 d83c
00000080: e469 783d 5a64 6e3c e43a ac3c aec2 d8bd
00000090: 7239 31be 30d1 233e 53a5 31be dca3 173e
000000a0: a70e 1abe 63cc 0fbe f7c5 b1bd de7f 843c
000000b0: e6d2 06be 0d3d 0f3e 37c3 0e3e 4427 87bc
000000c0: 9251 333d 6a63 4e3d e4c9 973d 2820 49bc
000000d0: 83a1 2b3e 283f 26be da5f 75bd db5e 333e
000000e0: 20c7 db3d a70d ad3c aa7b 023e effe 1f3e
000000f0: 4df9 673c 078f 99bd 0fb4 fcbd 3b26 2fbe
00000100: def1 08bd 1240 373d 28bc 633c 724b f3bd
00000110: cc49 083c 282a 253a e833 13bd 7223 1bbe
00000120: 9f82 a7bd 45ed 76bd 5a94 ef3d 0754 e5bc
00000130: af67 343d fd5b 42bd 535c c3bd 8e7b 6e3d
00000140: a1e3 85bd 6b38 b03d d7e8 09be 225a 8d3d
00000150: c169 5b3d 07c7 873d b561 2f3e 9bd8 2f3d
00000160: 7de2 363d 93d5 1dbe dabd 583d d913 38bd
00000170: ff69 c43d d371 78bd fe68 19be b8af 043e
00000180: 1050 6b3d e0e6 12bd a60f acbd 5a01 45bd
00000190: 3c7a b2bd 45b5 06be c7f0 e8bd 3c34 033e
000001a0: 39d9 1ebd bf0d 05be 15c5 ecbd 3412 2cbe
000001b0: 618b 28be ddd0 973d 82b2 14be a14d febd
000001c0: 3717 7ebd 7fce e1bd bcb8 a8bc 3f5b 92bc
000001d0: 254b 30be c13c 51ba 7e71 9bbb d401 0cb7
000001e0: 9f1f 33be 3509 b0bd 274d 0f3e f4b9 663d
000001f0: ca7e 033d 5693 2cbe 9c2c 8c3b 0a1a 2ebe
00000200: 0e0e 043e b0d8 523d dd52 f4bc eaa1 bcbc
00000210: 7cae b83d 9587 babd def7 c5bd 8409 00be
00000220: 90d2 f83d 0c2a 253e 0ff3 febd ee71 1c3d
00000230: c9cd 143c 714a 2f3e ac80 0f3d 432f 2bbe
00000240: 39a0 303e c225 f7bd aa3f 1cbe f590 203e
00000250: 93de f63d 8159 d03d 20c6 aabd 0341 8fbd
00000260: a8e0 a73d 0f11 213e ad0c b0bd 6c59 123e
00000270: cf45 fe3d b928 073d 820e 50bd 6bfa 013e
00000280: c2b3 063e 2f02 36bc 026d fabd c6d8 91bd
00000290: a5a4 22be 9173 57bd b73d 94ba 4a8a e2bc
000002a0: e6c8 43bd 2e02 203e 343b bcbd 6161 ee3d
000002b0: 18ed 9d3d fac5 7bbd ae7a 06be a513 e53d
000002c0: f009 1e3e f9a9 e93d cd5a 203e 991b 96bd
000002d0: 5bc4 cebd 28e4 da3d 3057 0cbd e958 01be
000002e0: 7964 c63c 97ef 973d 5370 eb3c d2ed 2abe
000002f0: b4d2 16bd 63ba 143e d6ba 5ebd 5fb1 28be
00000300: 1760 26bd 54ec 30be bc05 f83d 28aa 98bd
00000310: 7daf 21be 8ffc 073e 12a2 af3d 95c4 d13d
00000320: b1be 1b3e 7d46 743d bf49 f7bd 25e1 26be
00000330: 6f35 28bd ac3c e93d ecef 2bbe befb f23c
00000340: cb58 c23d 4b84 30be f393 05bc c19a a73c
00000350: c1c1 383d 2139 c43d f6a3 0bbc 7bb6 673b
00000360: d7d4 0a3e de56 05be 8614 36bd 1bac 863d
00000370: a365 8dbd c2ed fe3c 77ac 19be 635d 88bd
00000380: 78ca 193d e581 d53d 5e3e 66bd 68a6 693d
00000390: ca68 9dbd d718 13be 53eb 2a3d 5c01 e5bd
000003a0: c918 2a3e 438d c73d 3e68 20be 3e66 873d
000003b0: dc91 e63d 5b9d 5a3d 0aba 1bbe 7618 20bd
000003c0: 3545 4e3d e6a4 5d3d 1ef4 763c 9495 17be
000003d0: 07f1 aebd 309b 073d 01bb 1c3c 2a13 abbd
000003e0: 311c a5bc 4297 d8bd ecdc 2b3e 710c 28be
000003f0: 3ca5 2cbe baca a93d 81b7 b73d 0c28 7fbd

mlp.bias_ih_l1 f4 [128]
0.08587488 0.09222232 0.18477666 0.06541333 0.20006418 -0.0021700782 0.10539395 0.08437949
0.08403396 0.08518538 -0.062412336 0.20979194 -0.03872025 0.11672528 0.2616169 0.077240236
0.021417191 0.19683419 0.17424239 -0.012769048 0.04497045 0.11660553 0.27633712 -0.06277534
0.08487899 0.18921496 -0.08277646 0.05540605 0.10480226 0.09550575 0.25431955 0.23282458
0.037757613 0.03182045 -0.115378216 0.15376721 -0.06122521 -0.16921136 0.044770215 0.09421319
-0.10880074 3.6098776e-05 -0.0005593519 -0.11790119 -0.14396925 0.090234354 0.031141337 0.041840587
-0.16709282 0.11252829 -0.092240125 -5.7172198e-05 0.061122622 0.10335897 -0.010617971 -0.13251768
0.057935964 0.10764558 0.120573595 0.02212562 -0.12056852 0.058424193 0.01285365 -0.103773735
0.12661378 0.033396527 -0.03807859 -0.0238114 -0.03446481 0.24317124 0.27835253 -0.29138947
0.13150847 0.031075075 -0.2665202 0.20784406 -0.23804145 0.11028884 -0.053576045 -0.17775027
-0.2491441 -0.23292889 -0.15461797 0.12946813 0.0390767 0.26596165 0.037921965 -0.23998372
-0.036198672 0.2330496 -0.19524282 -0.012219058 0.17242602 0.1910685 -0.0003747733 -0.07593869
-0.00036043924 0.23821817 -0.0024221498 0.013921331 0.081755355 0.2981155 0.05561418 0.1440184
-0.032955352 0.11704394 0.17713425 -0.04287491 0.15069959 0.27916095 0.14475937 0.20699587
0.23467447 -0.036757786 0.28883073 0.26639813 0.23250061 0.19059993 0.17495157 0.103434995
-0.02123778 0.12890443 0.14363858 0.24138059 0.009287562 -0.023641 0.050717887 0.23110802
00000000: 2bdf af3d 0edf bc3d 1836 3d3e 6df7 853d
00000010: a0dd 4c3e df37 0ebb c9d8 d73d 27cf ac3d
00000020: ff19 ac3d ac75 ae3d 14a4 7fbd b3d3 563e
00000030: 2099 1ebd aa0d ef3d a6f2 853e 2130 9e3d
00000040: 1b73 af3c e78e 493e 996c 323e 4535 51bc
00000050: ef32 383d e1ce ee3d 0f7c 8d3e 5c90 80bd
00000060: 09d5 ad3d 91c1 413e b486 a9bd 74f1 623d
00000070: 91a2 d63d 8598 c33d 2c36 823e 9169 6e3e
00000080: baa7 1a3d 2956 023d 6a4b ecbd 2775 1d3e
00000090: 49c7 7abd be45 2dbe f960 373d d8f2 c03d
000000a0: ecd2 debd c468 1738 78a1 12ba 2e76 f1bd
000000b0: ad6c 13be cacc b83d 1e1c ff3c 0961 2b3d
000000c0: 611a 2bbe 3b75 e63d 64e8 bcbd 2ecc 6fb8
000000d0: b75b 7a3d dead d33d 00f7 2dbc b7b2 07be
000000e0: 434e 6d3d 4975 dc3d 4aef f63d ca40 b53c
000000f0: a1ec f6bd 354e 6f3d 1e98 523c 5387 d4bd
00000100: 0ba7 013e ccca 083d 4cf8 1bbd 2010 c3bc
00000110: f92a 0dbd e201 793e 3984 8e3e 0031 95be
00000120: 28aa 063e 2891 fe3c 5675 88be 13d5 543e
00000130: 23c1 73be 1edf e13d 8e72 5bbd 2b04 36be
00000140: a21f 7fbe e984 6ebe 2c54 1ebe 4b93 043e
00000150: e40e 203d 202c 883e 1054 1b3d 4bbe 75be
00000160: 0f45 14bd 8ea4 6e3e bced 47be 7232 48bc
00000170: 7290 303e 76a7 433e 397d c4b9 be85 9bbd
00000180: 56f9 bcb9 77ef 733e eebc 1ebb 4b16 643c
00000190: 5a6f a73d 98a2 983e b2cb 633d 8f79 133e
000001a0: 31fc 06bd bcb4 ef3d ae62 353e 9a9d 2fbd
000001b0: fe50 1a3e 2fee 8e3e cd3b 143e baf6 533e
000001c0: 814e 703e 558f 16bd 9fe1 933e 5665 883e
000001d0: a414 6e3e a12c 433e 8126 333e bad5 d33d
000001e0: dafa adbc 86ff 033e fe15 133e 792c 773e
000001f0: dc2a 183c c5aa c1bc 8fbd 4f3d 95a7 6c3e

mlp.bias_hh_l1 f4 [128]
0.28299013 0.23750588 0.19760093 -0.025058463 0.03606623 -0.04346584 0.2623947 0.085622825
0.035991307 0.08398399 0.21989648 -0.04092827 0.035464637 0.031601734 -0.0642113 0.17198324
0.034432687 0.25686887 0.20734228 0.25759673 0.26744646 0.13836834 -0.011545709 -0.06288701
0.1284659 0.26396388 0.1427664 0.2829695 0.2563789 0.02922493 0.28853667 -0.009701734
-0.12281461 -0.0040193973 -0.07162857 0.16909434 -0.15634607 -0.03504664 0.13040227 0.11390683
0.16722229 0.15944229 0.03634053 0.097327314 0.1496755 -0.14619763 -0.0471525 -0.1310191
-0.10672326 0.056641128 -0.03386556 0.007737255 0.06516221 -0.017567186 0.13956025 0.012320704
-0.13782206 0.16880608 0.12717837 -0.10827428 0.15632603 0.010191424 0.09635028 -0.0944506
0.09388824 0.26998174 0.026979752 -0.1888792 0.0061134733 0.20847154 0.22572166 -0.18308567
0.05518093 0.029297113 -0.2999264 0.13360567 -0.19731347 0.27840078 -0.010336285 -0.14748527
-0.043760743 -0.0027774877 -0.25537547 0.110374354 0.22231019 0.018356664 -0.0055658394 -0.14610095
0.014250105 -0.028736064 0.028844723 -0.21683729 -0.0065653306 0.14586323 0.30749112 -0.16548744
0.15614313 0.24060489 0.18955256 0.16732854 0.03929156 0.253011 0.14321953 0.23701964
0.08183891 0.011915505 0.11426118 0.21497676 -0.052580226 0.23059703 -0.05407187 0.19615623
0.14895855 0.0006592831 0.04564583 0.049443696 -0.010340886 0.0013779486 0.20525305 0.2670142
0.09664314 0.0043839016 0.038098436 0.24074359 0.15178864 0.103162445 0.20508516 0.20588075
00000000: 15e4 903e be34 733e e657 4a3e 6847 cdbc
00000010: 2fba 133d 3d09 32bd 9958 863e 055b af3d
00000020: 9f6b 133d ccff ab3d 8b2c 613e 67a4 27bd
00000030: 5e43 113d d270 013d 3781 83bd 601c 303e
00000040: 4a09 0d3d 5184 833e 8951 543e b8e3 833e
00000050: beee 883e 6eb0 0d3e 372a 3dbc e8ca 80bd
00000060: 918c 033e 4626 873e 5b31 123e 61e1 903e
00000070: 1844 833e 1f69 ef3c 14bb 933e 06f4 1ebc
00000080: 3a86 fbbd 26b5 83bb 00b2 92bd 1127 2d3e
00000090: 2f19 20be 118d 0fbd 2c88 053e fc47 e93d
000000a0: 523c 2b3e d744 233e cfd9 143d 8b53 c73d
000000b0: 8944 193e d5b4 15be fb22 41bd df29 06be
000000c0: b991 dabd 8700 683d 9db6 0abd cd88 fd3b
000000d0: c473 853d 0fe9 8fbc e2e8 0e3e c7dc 493c
000000e0: 3a21 0dbe 80db 2c3e 0c3b 023e e8be ddbd
000000f0: ee13 203e eef9 263c 4c53 c53d 516f c1bd
00000100: 7a48 c03d 0c3b 8a3e a404 dd3c 8d69 41be
00000110: 8853 c83b 9079 553e 9423 673e cf7a 3bbe
00000120: 6605 623d 8000 f03c f48f 99be edcf 083e
00000130: 8b0c 4abe 8c8a 8e3e 8659 29bc 6106 17be
00000140: 773e 33bd 8306 36bb 93c0 82be f30b e23d
00000150: 48a5 633e b760 963c a561 b6bb 7d9b 15be
00000160: 4679 693c e567 ebbc c54b ec3c 980a 5ebe
00000170: fc21 d7bb 2c5d 153e 7a6f 9d3e 8a75 29be
00000180: fce3 1f3e 2161 763e 111a 423e 2c58 2b3e
00000190: 30f0 203d a88a 813e 24a8 123e 47b5 723e
000001a0: 299b a73d 4039 433c c401 ea3d de22 5c3e
000001b0: 5d5e 57bd a121 6c3e 777a 5dbd 2edd 483e
000001c0: 9788 183e bdd3 2c3a 1ff7 3a3d 7985 4a3d
000001d0: d26c 29bc 489c b43a db2d 523e 16b6 883e
000001e0: d7ec c53d d5a6 8f3b 1b0d 1c3d 7d85 763e
000001f0: 7b6e 1b3e d546 d33d d801 523e 67d2 523e

mlp.weight_ih_l2 f4 [128, 32]
0.26042658 0.24723107 -0.09231792 -0.10961724 0.059739836 0.2768936 0.079058826 -0.2743899
0.14540549 0.22491477 -0.21075189 0.2506988 -0.075132616 0.1801748 -0.21047412 -0.04187301
0.07618299 -0.13990107 -0.25911015 -0.0033117468 0.15281907 0.15827882 -0.19341321 -0.08963393
-0.09148455 0.13616581 0.015637584 -0.21584761 0.0090892315 0.106974036 0.26293647 -0.055137258
0.015043398 -0.013105361 -0.21974497 -0.25391325 0.0070438525 0.18332969 -0.022494646 -0.007914484
0.2197204 -0.060332593 -0.04798888 -0.0019125477 -0.21376716 -0.06299771 -0.22054848 0.076615624
-0.062231306 -0.10666914 -0.10104872 0.21861437 -0.00891002 0.22175509 0.08316215 -0.14978842
-0.08001758 0.01639186 -0.08134087 -0.10488828 0.20017022 0.05837221 0.22567862 -0.23100261
0.121373005 0.027291989 -0.21620774 -0.065745294 -0.14461023 0.24055268 0.27019683 -0.12738371
0.039501693 -0.06066543 0.040684383 0.11297608 -0.14635342 0.18610379 -0.228595 -0.11037655
-0.15918641 -0.13482592 -0.068413354 0.10057102 0.18855017 0.21727133 -0.11254246 -0.118811004
-0.0807855 0.15872183 -0.18570937 0.011545612 0.24837235 0.029496841 0.19988959 -0.0012596875
0.14615819 0.10690386 -0.24889721 -0.026249574 0.048051484 0.18148032 0.05887177 -0.09931603
-0.038975447 0.16084355 -0.2618486 -0.0138322795 0.03322311 -0.063729994 -0.13206694 -0.26794338
0.067206725 -0.083041236 -0.14934774 0.04628529 0.024428613 0.027239539 -0.03340517 -0.030083822
-0.1261007 -0.020022674 -0.0680121 0.04463824 -0.07203074 0.08761686 0.18130143 0.008890651
-0.04949601 0.09726622 -0.06033448 0.06271097 0.040041298 -0.013919601 0.0731005 -0.028336925
0.028522145 0.016584389 0.074723855 0.035424378 -0.061444946 -0.07753893 -0.21355762 0.07692645
-0.15050101 0.018146304 -0.21969834 0.0072641186 0.2627381 0.04236355 -0.25408697 0.06576721
-0.035262376 0.13281779 0.062302094 -0.09239409 0.018348912 0.1517194 0.05763981 -0.14008519
0.25733197 0.095082365 -0.19671184 -0.23150195 -0.20719314 0.02179322 -0.016654963 -0.040028505
0.11019678 -0.032296494 -0.021226855 -0.06210369 -0.014911182 0.0118725905 -0.14752589 -0.10778241
-0.05846094 -0.06652464 -0.2483541 -0.0059950463 0.27211592 0.21870364 -0.03781878 -0.16725418
-0.16568485 0.06393815 -0.10605387 -0.23367546 -0.06098625 -0.029561685 -0.04887988 -0.23520158
0.19704394 0.19764026 -0.1503085 -0.001228755 0.05274702 -0.071622014 -0.05247395 -0.037332177
-0.021035017 -0.079884514 -0.021659186 0.09082102 0.024941068 -0.0639132 -0.020417443 -0.15904431
-0.25249118 0.06158322 0.05923583 -0.07496469 -0.027147563 0.21666248 -0.24140683 -0.24407068
-0.13581727 -0.08333571 -0.015149782 -0.15342878 0.04460443 0.1489356 0.012644517 -0.0036932211
0.013483338 0.10829616 -0.16905399 -0.073666826 -0.16986056 0.056497823 -0.032504693 -0.16339839
-0.05053921 0.0846795 0.01694476 0.09314363 -0.03583951 0.19084719 -0.03764164 -0.25951478
-0.16288854 0.014688701 -0.24605204 0.106732935 0.14515828 0.09834542 -0.1080844 0.013447156
0.0154320225 0.24437693 -0.22643562 -0.26777884 -0.061007142 -0.02596342 0.21569413 -0.20393221
00000000: a256 853e 242a 7d3e 2d11 bdbd 017f e0bd
00000010: c2b1 743d ffc4 8d3e 98e9 a13d d57c 8cbe
00000020: 2de5 143e 0f50 663e 58cf 57be 985b 803e
00000030: 21df 99bd be7f 383e 8786 57be 0983 2bbd
00000040: d405 9c3d 3a42 0fbe 16aa 84be e409 59bb
00000050: 9a7c 1c3e d813 223e 1d0e 46be fe91 b7bd
00000060: 405c bbbd 0d6f 0b3e 641a 803c 2807 5dbe
00000070: 00eb 143c 3415 db3d 9c9f 863e 9bd7 61bd
00000080: 9678 763c deb7 56bc d304 61be eb00 82be
00000090: 1ed0 e63b c7ba 3b3e b146 b8bc c0ab 01bc
000000a0: 62fe 603e 4f1f 77bd fd8f 44bd 74ae faba
000000b0: c7e5 5abe f204 81bd 76d7 61be a7e8 9c3d
000000c0: 41e6 7ebd 5a75 dabd a2f2 cebd 72dc 5f3e
000000d0: 55fb 11bc c413 633e eb50 aa3d 2362 19be
000000e0: 42e0 a3bd 3948 863c 0b96 a6bd abcf d6bd
000000f0: 6cf9 4c3e b317 6f3d 4c18 673e f38b 6cbe
00000100: 6992 f83d 7393 df3c 9065 5dbe 78a5 86bd
00000110: b414 14be 7153 763e 3d57 8a3e e070 02be
00000120: 87cc 213d 507c 78bd aba4 263d 0160 e73d
00000130: acdd 15be fe91 3e3e cf14 6abe 1a0d e2bd
00000140: c301 23be ce0f 0abe 4d1c 8cbd 2ef8 cd3d
00000150: 4c13 413e 607c 5e3e a97c e6bd 2f53 f3bd
00000160: de72 a5bd fa87 223e 992a 3ebe ce29 3d3c
00000170: 5255 7e3e 5ca3 f13c dbaf 4c3e 191c a5ba
00000180: 7eaa 153e 69f0 da3d e9de 7ebe 5909 d7bc
00000190: a2d1 443d fad5 393e 8623 713d 3466 cbbd
000001a0: b8a4 1fbd 2cb4 243e 0511 86be c9a0 62bc
000001b0: f514 083d df84 82bd 8e3c 07be e02f 89be
000001c0: aea3 893d 8611 aabd 9dee 18be a595 3d3d
000001d0: 841e c83c 7425 df3c dcd3 08bd 5972 f6bc
000001e0: 8b20 01be 9706 a4bc ee49 8bbd 96d6 363d
000001f0: da84 93bd 7870 b33d 15a7 393e 18aa 113c
00000200: 54bc 4abd 8333 c73d 4a21 77bd 9c6e 803d
00000210: 5802 243d 0a0f 64bc b7b5 953d d722 e8bc
00000220: 46a7 e93c fcdb 873c d208 993d 2719 113d
00000230: b2ad 7bbd bbcc 9ebd d9ae 5abe 9d8b 9d3d
00000240: f01c 1abe 8fa7 943c 9af8 60be d807 ee3b
00000250: 9c85 863e 6785 2d3d b017 82be f6b0 863d
00000260: 486f 10bd 6301 083e 7b30 7f3d 1d39 bdbd
00000270: 7550 963c 555c 1b3e b917 6c3d 7e72 0fbe
00000280: 04c1 833e 8bba c23d d46e 49be d90e 6dbe
00000290: 702a 54be b287 b23c fd6f 88bc eef4 23bd
000002a0: d9ae e13d 5449 04bd f1e3 adbc 7060 7ebd
000002b0: 084e 74bc 4185 423c 0711 17be 06bd dcbd
000002c0: bd74 6fbd 123e 88bd 8a50 7ebe 1872 c4bb
000002d0: c752 8b3e d9f3 5f3e dde7 1abd ae44 2bbe
000002e0: 4aa9 29be 01f2 823d c532 d9bd 9f48 6fbe
000002f0: b8cc 79bd 592b f2bc 4536 48bd afd8 70be
00000300: e3c5 493e 3562 4a3e 79ea 19be 2d0e a1ba
00000310: 420d 583d 90ae 92bd edee 56bd a0e9 18bd
00000320: a151 acbc 7e9a a3bd 9b6e b1bc 5f00 ba3d
00000330: 3651 cc3c ece4 82bd 7b42 a7bc 83dc 22be
00000340: 8646 81be b03e 7c3d 45a1 723d 1687 99bd
00000350: 9164 debc c5dc 5d3e 5a33 77be aaed 79be
00000360: af13 0bbe eaab aabd cb36 78bc 6f1c 1dbe
00000370: 23b3 363d 9382 183e f32a 4f3c f809 72bb
00000380: 38e9 5c3c 61ca dd3d 7d1c 2dbe a2de 96bd
00000390: edef 2dbe 436a 673d a423 05bd e851 27be
000003a0: 3402 4fbd 726c ad3d bdcf 8a3c 16c2 be3d
000003b0: 73cc 12bd 726d 433e 1f2e 1abd 1fdf 84be
000003c0: 41cc 26be e1a8 703c 11f5 7bbe cc96 da3d
000003d0: 5fa4 143e 5369 c93d 5b5b ddbd 7651 5c3c
000003e0: 98d6 7c3c f23d 7a3e bdde 67be 4f1a 89be
000003f0: a0e2 79bd 3db1 d4bc ecde 5c3e 9bd3 50be
