checkpoints/TD3_3.pt (torch, 394655 bytes, 60 tensors)

mlp.0.weight f4 [128, 15]
0	0x3c7e7506	0.01553083
1	0x3d517226	0.05113425
2	0x3d563030	0.05229205
3	0x3d251492	0.04030282
4	0xbe255f7b	-0.16149704
5	0x3dbc22bb	0.09186312
6	0xbd39d479	-0.045368645
7	0x3b14c41c	0.0022699898
8	0x3d8aced6	0.06777732
9	0x3d060350	0.032718003
10	0xbd6f01f2	-0.058351465
11	0x3dc489d8	0.09596604
12	0x3cd255b5	0.025675634
13	0xbdba38a0	-0.090928316
14	0x3d0a8b79	0.033824418
15	0xbd091cf3	-0.033474874
16	0xbdc621d9	-0.09674425
17	0x3dc548de	0.09633039
18	0x3d90248b	0.0703822
19	0xbcfbfe8d	-0.030761028
20	0xbd6a4d3c	-0.057202563
21	0xb951493b	-0.00019959074
22	0xbd19e056	-0.03756746
23	0xbc7b9ec6	-0.015357679
24	0x3d725db3	0.05917139
25	0xbc054a8a	-0.008135447
26	0xbc0a55bf	-0.008443295
27	0x3be649ec	0.007027855
28	0x3a51a736	0.00079976337
29	0x3afc2d5c	0.0019239592
30	0xbc982638	-0.018572912
31	0xbc1a8be4	-0.009432767
32	0xbd42ed9e	-0.04758989
33	0xbd7a717e	-0.06114339
34	0x3b16947f	0.0022976694
35	0xbbda966a	-0.006670763
36	0x3dc649d1	0.09682048
37	0xbcbc06ad	-0.022952402
38	0xbaad8472	-0.0013238324
39	0x3ca959d7	0.020672722
40	0xbd1971e2	-0.037462123
41	0xbbd24aa8	-0.006417591
42	0xbb67bb54	-0.003535946
43	0x3c80aa47	0.015706195
44	0x3be83905	0.0070868754
45	0xbd0722e8	-0.032992274
46	0xbd7f74b0	-0.06236714
47	0xbc5f32c9	-0.013622948
48	0x3c77f9a7	0.015135205
49	0x3bad338c	0.005285686
50	0x3ba718d7	0.0050993967
51	0x3c76803d	0.015045223
52	0x3b9fe839	0.004879978
53	0x3c0647c3	0.00819582
54	0x3c984c6a	0.018591125
55	0xbce12573	-0.027483677
56	0xbaab9e28	-0.0013093399
57	0xbac684c5	-0.001514577
58	0xbb3edc39	-0.0029122962
59	0xb983c847	-0.00025135485
60	0xbd099968	-0.033593565
61	0xbbb2653c	-0.005444197
62	0x3c04ab45	0.008097474
63	0x3cd62595	0.026140967
64	0x3c143280	0.009045243
65	0xbc0985ac	-0.008393686
66	0xbd3de588	-0.046361476
67	0x3d667d99	0.056272123
68	0x3c899159	0.01679294
69	0x3cc8bed5	0.024505058
70	0x3bfb6599	0.0076720235
71	0xbd732a43	-0.059366476
72	0xbbf1623b	-0.0073664463
73	0xba2eeb56	-0.0006672641
74	0xbd380351	-0.044925038
75	0xbe3220b2	-0.17395285
76	0x3e388917	0.18021046
77	0x3dcb895f	0.09938311
78	0x3d629bba	0.055324294
79	0xbde09c98	-0.10967368
80	0xbd5f8637	-0.054571357
81	0xbe299901	-0.16562273
82	0x3e0cd353	0.13752489
83	0xbdd9470a	-0.10609253
84	0xbd0115cc	-0.031514928
85	0x3de6c073	0.112671755
86	0x3db3323b	0.08749815
87	0x3d859be2	0.06523873
88	0x3e2e50b2	0.1702297
89	0xbd17a26f	-0.037020143
90	0x3c74b653	0.014936048
91	0x3d801276	0.06253521
92	0x3c039a94	0.00803246
93	0x3cb5173a	0.022105802
94	0xbd0d6bd0	-0.034526646
95	0xbd27f203	-0.041002285
96	0xbd148f3e	-0.03626942
97	0x3c48c59e	0.012254147
98	0xbb894674	-0.004189307
99	0x3cbdd1ff	0.023171423
100	0xbbe615d3	-0.0070216446
101	0x3c1baa00	0.00950098
102	0xbcd5b460	-0.026086986
103	0xbd1331c7	-0.035936143
104	0xbd0e4032	-0.03472919
105	0xbd6d8f54	-0.057998016
106	0xbd194aaf	-0.03742474
107	0x3d52463d	0.051336516
108	0x3dc9583f	0.09831285
109	0x3c8b52f7	0.017007334
110	0xbd8cbad5	-0.06871573
111	0xbd59e46b	-0.053196352
112	0x3c2baa56	0.010477623
113	0xbd5ec1ee	-0.054384165
114	0x3c8bd5a6	0.017069649
115	0x3d8ec512	0.06971182
116	0xbd4f4bc5	-0.05060937
117	0xbc2268db	-0.009912695
118	0xbd05dfb4	-0.032684043
119	0xbc085748	-0.008321591
120	0x3cea5bf4	0.0286083
121	0xbd217a33	-0.03942318
122	0xbd9c5c9f	-0.076348536
123	0x3d936a62	0.07198025
124	0xbd7a3d89	-0.06109384
125	0x3ded4b2f	0.11586606
126	0xbcd3c835	-0.025852302
127	0x3b4dd022	0.0031404574
128	0x3d6d815c	0.057984695
129	0x3d6efbeb	0.058345716
130	0xbd738969	-0.059457216
131	0xbc7a4a71	-0.015276537
132	0x3c819b5e	0.015821155
133	0xbd82e9e8	-0.0639227
134	0xbb3096dc	-0.0026945388
135	0x3b9b2238	0.004734304
136	0xbd2e1aa9	-0.042505894
137	0x3cd86792	0.026416574
138	0x3bf9821b	0.0076143867
139	0xbc0e026f	-0.008667572
140	0xbba8c9e2	-0.0051510194
141	0xbc854fd8	-0.016273424
142	0xbd7e274a	-0.062049188
143	0xbb40ff9c	-0.002944923
144	0x3cf05ad7	0.02934019
145	0xbc20b33c	-0.009808358
146	0xbc3c4333	-0.011490631
147	0x3c251ccc	0.0100776665
148	0xbcc79e5e	-0.024367508
149	0xb9d2e9b1	-0.00040228435
150	0x3a84ddc3	0.0010136891
151	0xbc6d4dd1	-0.014483885
152	0x3dcf7cc2	0.101312175
153	0x3dcd8d66	0.10036735
154	0x3d78d962	0.060754187
155	0xbdd1c38c	-0.10242376
156	0xbd5a78d6	-0.053337894
157	0xbd04a066	-0.03237953
158	0x3c5c64ec	0.013451796
159	0xbdc3818c	-0.095461935
160	0xbd3c36df	-0.045950767
161	0xbd8d979a	-0.06913681
162	0x3d51fbb6	0.05126544
163	0x3d92d6b0	0.07169855
164	0xbd679409	-0.05653766
165	0x3c7c604a	0.0154038165
166	0x3acadcda	0.0015477196
167	0xbc8e68c6	-0.017383944
168	0xb908f0aa	-0.00013059625
169	0x3c3ff566	0.011716222
170	0xbce0e37c	-0.027452223
171	0xbb0ec32f	-0.002178382
172	0x3c355473	0.011067498
173	0xb958a966	-0.00020662471
174	0xbbfe41a9	-0.007759292
175	0x3bf5c297	0.0075000036
176	0xba84ec87	-0.0010141291
177	0xbca87618	-0.020564124
178	0xbc8cc88a	-0.017185468
179	0x3ba403b6	0.005005325
180	0x3940a6b7	0.00018372653
181	0x3d808372	0.06275071
182	0x3cffeb7d	0.03124022
183	0xbca47924	-0.020077296
184	0x3d35b830	0.044365108
185	0xbce2038f	-0.027589587
186	0xbd10035f	-0.035159465
187	0x3ca00380	0.019532919
188	0x3d7ce0e2	0.061737902
189	0xbd2f1e54	-0.042753533
190	0x3cda16ea	0.026622254
191	0xbd159108	-0.036515266
192	0x3b7d0cda	0.0038612396
193	0x3b3f4cd3	0.0029190078
194	0x3cc262e0	0.023728788
195	0x3d85e628	0.065380394
196	0xbd2d5456	-0.042316757
197	0xbd26f258	-0.04075846
198	0xbd293fa7	-0.04132047
199	0xbd27e2b9	-0.040987704
200	0x3cd70bb8	0.026250705
201	0x3d31f1a0	0.043443322
202	0xbd804738	-0.06263584
203	0xbad778be	-0.0016439182
204	0x3b85f355	0.0040878453
205	0xbc2a698e	-0.010401143
206	0xbb410acb	-0.0029455896
207	0xbd167748	-0.03673485
208	0x3bc7fd9c	0.0061032306
209	0x3cf83c0d	0.030302072
210	0x3c816556	0.015795391
211	0xbd3f1f94	-0.046660975
212	0x3d87668e	0.06611358
213	0x3da9a5a9	0.0828355
214	0x3d9352a8	0.071935
215	0xbb389d12	-0.0028169793
216	0xbce9f902	-0.028561119
217	0x3d100a2c	0.03516595
218	0xbcde170a	-0.027110595
219	0xbd70f361	-0.058825854
220	0xbb2b0515	-0.0026095558
221	0xbd5c072d	-0.05371778
222	0xb91f4ce0	-0.0001519206
223	0xbcbb5dab	-0.022871813
224	0x3d1b588c	0.03792624
225	0x3d4f0b24	0.050547734
226	0x3ccca9db	0.024983337
227	0xbc9a4998	-0.01883392
228	0xbd68c377	-0.056827035
229	0xbd2bef2b	-0.041976135
230	0xbce351f1	-0.027749034
231	0x3d3e8bd8	0.046520084
232	0xbe04332d	-0.12910147
233	0x3b55db9a	0.0032632113
234	0x3b76cbd2	0.0037658107
235	0xbca63615	-0.02028946
236	0x3ba84322	0.005134956
237	0xbd2614ca	-0.04054717
238	0xbc5cc6c9	-0.013475128
239	0xbcb4181a	-0.021984149
240	0x3d8d3aeb	0.06896003
241	0x3d64a027	0.055816796
242	0x3d17c724	0.03705515
243	0x3d98cbb2	0.07460727
244	0x3dc7bfff	0.09753417
245	0xbcb5d4f8	-0.022196278
246	0xbda5b446	-0.08091025
247	0x3d2a266f	0.04154056
248	0xbddc2cca	-0.1075073
249	0xbe22cddf	-0.15898846
250	0x3ced422b	0.028962215
251	0xbdffcbd4	-0.12490049
252	0x3d85fcce	0.06542359
253	0x3d9d2e7c	0.07674882
254	0xbb8b3282	-0.0042479644
255	0xbd688808	-0.056770355

mlp.0.bias f4 [128]
0	0xbf502bb4	-0.81316686
1	0xbecd65de	-0.4011678
2	0x3d56106d	0.05226176
3	0xbe6a8aa9	-0.22904457
4	0xbd82c9ff	-0.06386184
5	0xbf0ee808	-0.558228
6	0x3c6c1d5b	0.014411296
7	0xbe6f03fe	-0.23341367
8	0x3e97ddb9	0.29661348
9	0xbdd6ac78	-0.104821146
10	0x3eac08ca	0.33600456
11	0xbdfbd348	-0.12296158
12	0x3e626cdb	0.22111838
13	0x3d2d3c9b	0.042294126
14	0x3e1cf92b	0.15329425
15	0xbeeab55a	-0.45841485
16	0xbee17980	-0.4403801
17	0xbee9f8a6	-0.45697516
18	0xbebe1594	-0.37125838
19	0x3e515b65	0.2044502
20	0xbf035079	-0.51294667
21	0xbd92547c	-0.0714502
22	0x3edf008b	0.43555102
23	0xbee75f6e	-0.45189995
24	0x3f021399	0.50811154
25	0x3eac5034	0.3365494
26	0xbf4da4fd	-0.8032988
27	0xbec65823	-0.38739118
28	0xbdcb0c3f	-0.09914445
29	0xbe04b2c6	-0.12958822
30	0x3ec83c83	0.39108667
31	0xbd4ffe2d	-0.05077951
32	0x3e32190f	0.17392372
33	0x3e504a1f	0.20340775
34	0xbe37bd30	-0.17943263
35	0xbefa9893	-0.4894453
36	0xbf19ef17	-0.6013045
37	0x3e843f1b	0.25829396
38	0x3f034546	0.5127758
39	0x3e5ccd9d	0.2156281
40	0xbef62199	-0.48072508
41	0xbde38f37	-0.111113004
42	0x3eff5f17	0.49877235
43	0x3ebe5e1d	0.37181178
44	0xbd26d31d	-0.040728677
45	0xbe565159	-0.20929469
46	0x3dd682e0	0.10474181
47	0x3e481d4c	0.19542426
48	0x3dda09b7	0.10646384
49	0xbd4196d5	-0.047262985
50	0xbe21c90e	-0.15799353
51	0xbe8ca487	-0.27469274
52	0xbec8840c	-0.39163244
53	0x3e6e3911	0.23263957
54	0xbf0f18f5	-0.55897456
55	0xbe6ad61f	-0.22933243
56	0xbeeafc92	-0.4589582
57	0xbd9c7f64	-0.07641485
58	0x3edb5f51	0.42846158
59	0xbf1f2e9e	-0.6218051
60	0xbf3130f2	-0.6921531
61	0xbf1490a2	-0.5803319
62	0x3e071c65	0.13194425
63	0x3f005dc6	0.50143087
64	0x3ec73d53	0.38913974
65	0xbcb264b9	-0.021776544
66	0x3ea129f8	0.31477332
67	0xbf17a479	-0.5923534
68	0xbe53d8ea	-0.20688215
69	0xbf0e00a6	-0.5546974
70	0x3dfbaf11	0.12289251
71	0xbecf3c53	-0.4047571
72	0xbecab4fb	-0.39591202
73	0xbf45df07	-0.7729344
74	0xbe951b91	-0.29122594
75	0xbdcf6166	-0.10125999
76	0xbf06eb58	-0.52702856
77	0xbf1a96c6	-0.6038631
78	0xbed5bdc6	-0.41746348
79	0xbf03e9d2	-0.51528656
80	0x3e3ee0f2	0.18640497
81	0xbef48385	-0.4775659
82	0x3efcb7be	0.49358934
83	0x3eda1b58	0.42598987
84	0xbf12ba3c	-0.5731542
85	0xbf277c67	-0.654242
86	0xbeec5120	-0.46155643
87	0x3e361453	0.1778119
88	0xbf59506d	-0.84888345
89	0xbee5f8a1	-0.4491625
90	0xbed87a4b	-0.42280802
91	0xbedfb6e3	-0.4369422
92	0x3d198189	0.03747705
93	0x3efbc8c1	0.491766
94	0x3f14eee1	0.58177
95	0x3eae2637	0.3401353
96	0x3eaab724	0.3334285
97	0xbf45cd71	-0.77266604
98	0xbed6b9dc	-0.41938674
99	0xbec466e6	-0.38359755
100	0xbef7f028	-0.48425412
101	0xbeca3d8a	-0.39500076
102	0xbeeda28e	-0.46413082
103	0x3e53738f	0.20649551
104	0xbe90ed47	-0.28306028
105	0xbdd780a6	-0.105225846
106	0x3f03c98a	0.514794
107	0xbd161dd6	-0.036649548
108	0x3edb3bf6	0.42819184
109	0x3edfdecc	0.43724668
110	0xbcd3505c	-0.025795154
111	0xbea2a111	-0.3176351
112	0x3e272ac6	0.1632491
113	0x3f365f51	0.7123919
114	0x3d8a68c5	0.067582645
115	0x3e98e391	0.2986112
116	0x3e95ea90	0.2928052
117	0xbfcd49a4	-1.6038098
118	0x3ed7a513	0.4211813
119	0xbef2cbe2	-0.47421175
120	0x3e4db1c8	0.2008735
121	0x3e98035c	0.29690063
122	0xbf6e1b25	-0.9301017
123	0x3dbe225c	0.09283897
124	0xbe010fa6	-0.12603626
125	0x3eb0b4c7	0.34512922
126	0xbf4d422d	-0.801791
127	0xbf33bd1e	-0.70210445

mlp.2.weight f4 [64, 128]
0	0xbd1d98a4	-0.038475648
1	0x3d793eb7	0.060850825
2	0x3d0b79a0	0.034051538
3	0x3d34a33e	0.044100992
4	0xb91e6847	-0.000151069
5	0x3c95ae31	0.018271537
6	0x3d1428e8	0.036171824
7	0x3d0270d3	0.03184588
8	0x3d998cc1	0.0749755
9	0xbceab049	-0.028648512
10	0x3caf7b8c	0.021421216
11	0x3d4a6940	0.04941678
12	0x3d544013	0.05181892
13	0x3d98343b	0.07431837
14	0x3d9c804f	0.076416604
15	0xbbc1a487	-0.0059095058
16	0x3db1388f	0.08653366
17	0x3c152872	0.009103881
18	0xbc828f50	-0.015937477
19	0x3db219f1	0.08696354
20	0xbc00ee23	-0.007869276
21	0x3c0e2098	0.008674763
22	0x3be78854	0.007065812
23	0x3d66efde	0.0563811
24	0x3c9ea82d	0.019367302
25	0x3c4bb72c	0.012433808
26	0xbbe49504	-0.006975772
27	0xbd117e94	-0.035521105
28	0x3ca5f624	0.02025897
29	0x3d2e281b	0.042518716
30	0xbcecdb6e	-0.028913226
31	0x3cf2d5bd	0.029642934
32	0x3d446799	0.04795036
33	0x3d82daee	0.06389414
34	0x3b5adfa3	0.0033397458
35	0x3ec14ce1	0.37753966
36	0xbd16b5a4	-0.03679432
37	0x3cafaeb9	0.021445619
38	0xbd30a87e	-0.043129437
39	0x3d28c943	0.041207563
40	0x3e3ce8c4	0.18448168
41	0x3d9c4c1b	0.076317035
42	0x3d8a353b	0.06748434
43	0x3ba40819	0.005005848
44	0x3da76ded	0.081752636
45	0x3d3d6044	0.046234384
46	0x3d074b54	0.033030823
47	0x3be7ff36	0.007079984
48	0x3c0129c2	0.007883491
49	0x3d784498	0.06061229
50	0xbc1dae82	-0.009624125
51	0x3d3231c0	0.043504477
52	0x3db8ed2c	0.09029612
53	0x3e1a5868	0.15072787
54	0x3d1de8a4	0.03855194
55	0x3cb0f7b7	0.021602495
56	0x3c1762a7	0.009239829
57	0xbd575f97	-0.052581396
58	0x3d4ea594	0.050450876
59	0x3db05428	0.086098015
60	0x3db76163	0.08954122
61	0xba875260	-0.0010324232
62	0xbbb81eb6	-0.0056188954
63	0x3dec6ce8	0.1154421
64	0x3e041019	0.12896766
65	0x3d03825b	0.03210674
66	0xbcf94b58	-0.030431435
67	0x3cbe4d63	0.02323026
68	0xbc74104c	-0.014896464
69	0x3da20dae	0.079127654
70	0xbb7c37d5	-0.0038485427
71	0x3d87ac8b	0.06624707
72	0xbd995acf	-0.074880235
73	0xbd95bddf	-0.07311606
74	0xbc7ab168	-0.015301086
75	0x3d5ed06b	0.05439798
76	0xbd2a4164	-0.041566268
77	0x3d0ace28	0.033888012
78	0x3c966119	0.018356847
79	0xbcf96552	-0.030443821
80	0x3de374f2	0.1110629
81	0xbd19e862	-0.037575133
82	0xbd243a0f	-0.04009443
83	0x3e0b2e8c	0.13591975
84	0xbd5a5cb7	-0.053311076
85	0x3d84b8b4	0.06480542
86	0x3db104eb	0.08643516
87	0x3d70b814	0.0587693
88	0x3c9d9218	0.019234702
89	0x3e7dcd72	0.24785402
90	0x3dbd8f24	0.092558175
91	0xbc833632	-0.016017053
92	0x3d830162	0.06396748
93	0xbd5b4106	-0.053528808
94	0x3cc7143c	0.02430164
95	0xbc2a98e7	-0.010412431
96	0xbca3d8af	-0.020000784
97	0x3d9e6a35	0.07735101
98	0x3d09d633	0.033651542
99	0x3c6cafd8	0.014446221
100	0xbd70f5cb	-0.058828156
101	0xba246f8e	-0.00062727265
102	0x3c9cb699	0.019130038
103	0xbcb182eb	-0.021668872
104	0x3de48879	0.111588426
105	0x3d585bb5	0.052821834
106	0x3d5d4e3f	0.0540297
107	0xbc8d8120	-0.017273486
108	0x3d8acb8e	0.06777106
109	0xbb42f7ef	-0.002974983
110	0x3da47264	0.08029631
111	0xbd4070e6	-0.04698267
112	0xbd2a7a43	-0.041620504
113	0x3dd3951f	0.10331177
114	0xbba39be4	-0.004992949
115	0x3dec1ecb	0.11529311
116	0x3d03d323	0.032183778
117	0x3e2630cf	0.16229557
118	0x3bdd8187	0.0067598256
119	0x3db109b6	0.0864443
120	0x3dc0a708	0.09406859
121	0x3cbd4d9d	0.023108298
122	0x3dd41441	0.103554256
123	0xbc5a5ca7	-0.013327754
124	0x3dbbfdda	0.09179278
125	0x3d2cc508	0.04218009
126	0xbc2706c5	-0.010194485
127	0x3dc672cc	0.096898645
128	0x3d48295f	0.04886758
129	0xbd3d6c2f	-0.04624575
130	0x3d9aa299	0.07550544
131	0xbd5bc635	-0.05365582
132	0xbca65b01	-0.020307066
133	0x3d8e59e4	0.06950739
134	0x3bfa0b4d	0.0076307417
135	0xbd27a34f	-0.040927228
136	0x3d7f7b47	0.062373426
137	0x3dab5dd8	0.08367509
138	0x3c80833d	0.01568758
139	0x3de11839	0.10990948
140	0x3b44c0b6	0.0030022091
141	0xbc3774e0	-0.011197299
142	0xbd758c82	-0.05994845
143	0x3cd017fa	0.025402058
144	0xbd3cdd7b	-0.046109658
145	0x3b064d5e	0.0020492892
146	0xbc1715aa	-0.009221474
147	0x3d98bff7	0.074584894
148	0x3d7f4d5f	0.062329646
149	0xb9bc0447	-0.0003586134
150	0xbc3ae6df	-0.011407583
151	0x3d647c4e	0.05578261
152	0x3dc3793e	0.095446095
153	0x3dc2c06d	0.095093586
154	0x3d8d355f	0.06894945
155	0xbd23a8a0	-0.039955735
156	0x3d85ffca	0.065429285
157	0x3be07211	0.0068495353
158	0xbc18ae16	-0.009318849
159	0xbd8ae114	-0.067812115
160	0xbca504d0	-0.020143896
161	0x3d27ee0e	0.04099851
162	0xbd4ce9e3	-0.05002774
163	0x3d64ea22	0.05588735
164	0x3ca9ae07	0.020712866
165	0x3dbbec5b	0.091759406
166	0x3d3bbaf2	0.04583258
167	0x3d682781	0.0566783
168	0x3d5cb82f	0.05388659
169	0x3d81715c	0.0632045
170	0x3da17664	0.07883909
171	0xbc7f3ac0	-0.015577972
172	0xbc8ab38d	-0.01693132
173	0x3c3052a0	0.010761887
174	0x3caa1e50	0.020766407
175	0x3ca462cf	0.020066647
176	0x3d184eaa	0.037184395
177	0x3d1b8096	0.037964426
178	0x3cc1f42b	0.023675999
179	0xbd005a3b	-0.03133605
180	0x3d271c2a	0.040798344
181	0x3d9b6150	0.0758692
182	0x3da0b49c	0.078469485
183	0xbcbe3f4c	-0.023223542
184	0xbd4c2908	-0.049843818
185	0xbd9826ea	-0.07429297
186	0x3da7b8cd	0.08189545
187	0x3d1578fb	0.03649233
188	0x3d117e5d	0.0355209
189	0xbb9be2b8	-0.0047572516
190	0x3dca0bd9	0.09865541
191	0x3d4b7bff	0.0496788
192	0x3d617b49	0.055049215
193	0x3db52f92	0.08846964
194	0x3dce2d0b	0.10067185
195	0xbc4f59df	-0.012655704
196	0x3d3db880	0.04631853
197	0xbd4e0fd2	-0.050308056
198	0x3dc4b5ce	0.09604989
199	0x3d3dc444	0.04632975
200	0x3db9c26b	0.090702854
201	0x3c6b02c2	0.014343919
202	0x3db56003	0.088562034
203	0x3d8b4761	0.06800724
204	0xbd09348f	-0.03349739
205	0x3dffc8eb	0.12489494
206	0xbce1010c	-0.02746632
207	0xbc8df5e6	-0.017329168
208	0x3dcba035	0.099426664
209	0x3da6de1e	0.08147834
210	0x3d3a3df5	0.045469243
211	0x3da39170	0.079867244
212	0x3d9d3163	0.076754354
213	0x3dfdeeda	0.12399073
214	0x3d070001	0.032958988
215	0xbcb3ef97	-0.021964831
216	0x3d1f21b5	0.038850505
217	0x3dea4e91	0.114407666
218	0x3d002af6	0.03129097
219	0x3d0be479	0.034153435
220	0x3d076010	0.033050597
221	0x3db8b841	0.09019519
222	0x3c418315	0.011811038
223	0x3dd9e86a	0.106400326
224	0xbcd69d93	-0.026198184
225	0xbc8a0914	-0.016850032
226	0xbccc86ad	-0.024966562
227	0xbc8a1130	-0.016853899
228	0xbc5d7b42	-0.0135181565
229	0x3b97b12b	0.0046292744
230	0xbdc8bb1d	-0.09801314
231	0x3caaacd2	0.02083436
232	0xbcd0a7db	-0.025470665
233	0x3cb7ecba	0.022451747
234	0x3d9c6af6	0.07637589
235	0x3d95aa76	0.073079035
236	0xbd88920f	-0.066684835
237	0x3db256a2	0.0870793
238	0xbd7820ca	-0.060578145
239	0xbc29b734	-0.01035862
240	0x3bb7d4fd	0.005610107
241	0x3d230a97	0.03980502
242	0x3dd03452	0.10166229
243	0x3caca4e1	0.021074714
244	0x3db68380	0.089118004
245	0xbcf58372	-0.029969905
246	0xbd0aef87	-0.033919837
247	0x3ceef710	0.029170543
248	0xbd49ebc2	-0.0492971
249	0x3d7c1f25	0.06155314
250	0xbbc515a9	-0.006014545
251	0x3d15602a	0.036468662
252	0x3d8a5a16	0.06755464
253	0x3dc2890e	0.09498797
254	0xbd7a97b6	-0.06117984
255	0xba5ac5d6	-0.000834552

mlp.2.bias f4 [64]
0	0x3e5109b6	0.2041386
1	0x3e957c64	0.29196465
2	0xbe25fa9b	-0.1620888
3	0xbf017cc2	-0.5058099
4	0xbec81275	-0.39076582
5	0xbecef31b	-0.4041985
6	0x3dc65bff	0.096855156
7	0x3dfd2f26	0.123625085
8	0x3e53489b	0.20633166
9	0x3e3fb8ff	0.18722914
10	0xbe05f57f	-0.1308193
11	0xbe1c618a	-0.15271583
12	0xbe6027bd	-0.21890159
13	0x3d6d1db3	0.05788965
14	0x3d6a6c07	0.05723193
15	0x3dd814e8	0.105508626
16	0xbef859c2	-0.4850598
17	0x3da77c88	0.08178049
18	0xbe8fc338	-0.28078628
19	0x3e284994	0.16434318
20	0x3d698464	0.057011023
21	0xbe83385b	-0.25628933
22	0x3e973bf1	0.2953792
23	0x3ea073cb	0.31338343
24	0xbf079ad1	-0.52970606
25	0x3e336132	0.17517546
26	0x3e7c836e	0.24659511
27	0x3e81544b	0.25259623
28	0xbe5e1b15	-0.21690018
29	0x3e8fc877	0.2808263
30	0x3e8ba668	0.27275395
31	0xbba3ee02	-0.005002738
32	0x3e88640d	0.26638833
33	0xbe79dfa3	-0.24401717
34	0xbe820d27	-0.2540066
35	0x3e818776	0.2529866
36	0x3e83e04c	0.25757062
37	0x3e88a275	0.26686445
38	0x3e7ff612	0.24996212
39	0x3e2c4168	0.16821826
40	0x3e1c5519	0.15266837
41	0xbe83ee6a	-0.25767833
42	0xbe74e0b1	-0.23913838
43	0xbe968af7	-0.29402897
44	0xbeaf2c23	-0.3421336
45	0xbe7a2c5e	-0.24430987
46	0xbe1ab169	-0.15106739
47	0xbe2b1049	-0.16705431
48	0x3dffc83c	0.124893636
49	0xbe8326d3	-0.25615558
50	0xbe8d0754	-0.27544653
51	0xbe90a6af	-0.2825217
52	0x3db3d25a	0.08780356
53	0xbe16090c	-0.14651889
54	0x3e1e6ae7	0.15470468
55	0x3bed2e22	0.0072381655
56	0x3dd4a180	0.10382366
57	0x3d80de93	0.06292453
58	0x3dcdb576	0.100443766
59	0x3daff43c	0.08591506
60	0x3e47415c	0.19458526
61	0xbe98343d	-0.29727355
62	0xbe7e90f5	-0.24859984
63	0x3e94fd98	0.29099727

mlp.4.weight f4 [2, 64]
0	0xbd39e062	-0.045380004
1	0xbe0324dc	-0.1280703
2	0x3b93af7e	0.0045070043
3	0x3e4e3482	0.20137218
4	0x3d8b8d5b	0.06814071
5	0x3e160005	0.14648445
6	0xbd8fa6db	-0.07014247
7	0xbddefaf9	-0.10887713
8	0xbdae3de9	-0.08507902
9	0xbd82e7a8	-0.06391841
10	0xbc47b9b6	-0.012190273
11	0x3de33832	0.11094703
12	0x3dde4ee5	0.10854892
13	0xbc28fac9	-0.010313698
14	0x3d07533e	0.03303837
15	0xbc644223	-0.013931784
16	0x3e1142c1	0.14185621
17	0xbe133e48	-0.14379227
18	0x3e0042e5	0.12525518
19	0xbe012283	-0.12610821
20	0xbb799c23	-0.003808745
21	0x3ad73195	0.0016417975
22	0xbdb679df	-0.08909964
23	0xbde9540b	-0.11392983
24	0x3e6c4661	0.23073722
25	0xbd65f8b2	-0.056145377
26	0xbde71b22	-0.11284472
27	0xbe121f38	-0.14269722
28	0x3e375830	0.17904735
29	0xbdd9aae9	-0.10628302
30	0xbe26b571	-0.16280152
31	0x3b091387	0.002091618
32	0xbda2eeb3	-0.079556845
33	0x3de307e3	0.11085489
34	0x3e0a0d39	0.13481607
35	0xbe398831	-0.18118359
36	0xbdecaad4	-0.115560204
37	0xbe0ec0f1	-0.13940789
38	0xbdc8d36e	-0.09805952
39	0xbe173cd5	-0.147693
40	0xbdead6b3	-0.11466732
41	0x3dec3947	0.11534362
42	0x3e1bf85c	0.1523146
43	0x3e434385	0.19068725
44	0x3e06c03a	0.13159266
45	0x3e118e3f	0.14214419
46	0x3d8490ba	0.06472917
47	0x3da1d84f	0.07902586
48	0xbde31844	-0.11088613
49	0x3e3615f2	0.17781809
50	0x3e3060a1	0.17224361
51	0x3dd7895d	0.10524247
52	0xbdcfeed6	-0.10152976
53	0x3dad0916	0.08448999
54	0xbdd55a23	-0.10417583
55	0x3c85458b	0.016268512
56	0xbdaf2ee9	-0.08553869
57	0xbb64899a	-0.0034872056
58	0xbc6e46f0	-0.01454328
59	0xbc3ca93c	-0.011514958
60	0xbd89620b	-0.06708153
61	0x3d88b3c7	0.06674915
62	0x3e2c4706	0.16823968
63	0xbda0690a	-0.078325346
64	0x3da8d817	0.08244341
65	0x3dc40ac2	0.095723644
66	0x3a23dfdc	0.0006251314
67	0xbd5a6a4d	-0.053324033
68	0xbc4f7adf	-0.012663572
69	0xbd3b866c	-0.04578249
70	0xbca3b584	-0.019984014
71	0xbd68679b	-0.05673943
72	0x3dbb27ec	0.09138474
73	0x3cdb66f1	0.026782485
74	0xbb197179	-0.0023413582
75	0xbd04ad88	-0.032392055
76	0xbd191e3c	-0.03738235
77	0x3da0c212	0.07849516
78	0x3da3b430	0.079933524
79	0x3db2c53d	0.087290265
80	0xbcf1cd6d	-0.0295169
81	0xbdd427ba	-0.1035914
82	0xbdf51c2f	-0.11968266
83	0x3d61d876	0.055138074
84	0x3d467f09	0.048460994
85	0x3bc98445	0.006149801
86	0x3d5617ff	0.05226898
87	0x3ccc90e2	0.02497143
88	0xbda358db	-0.07975932
89	0x3d347865	0.04406013
90	0x3c236fcd	0.009975386
91	0x3dd914b9	0.10599656
92	0xbdc3e72a	-0.095655754
93	0x3cf525cd	0.029925251
94	0x3d21f1a7	0.0395371
95	0x3da85796	0.08219831
96	0x3ceb3877	0.028713448
97	0xbd71a2a6	-0.058993004
98	0xbd0ac33b	-0.033877593
99	0xbb051531	-0.002030682
100	0x3d0cefc3	0.034408342
101	0x3d0980fa	0.033570267
102	0x3d7a533d	0.06111454
103	0xbc1843a5	-0.009293471
104	0xbbdfaea1	-0.0068262373
105	0xbdb1b34a	-0.08676775
106	0xbd4951e9	-0.04915038
107	0xbdb11d98	-0.08648223
108	0xbcfc4305	-0.030793676
109	0xbd382b16	-0.044962965
110	0x3ce3c5b1	0.027804228
111	0xbcad80e5	-0.021179626
112	0xbc5fc025	-0.013656651
113	0xbdd4e0af	-0.103944175
114	0xbd8c4be4	-0.068504125
115	0xbe0905c1	-0.13381101
116	0xbd95117e	-0.07278727
117	0xbce80f4a	-0.028327603
118	0xbddffa33	-0.109363936
119	0xbc2a8d32	-0.01040964
120	0xbcbf71e7	-0.023369743
121	0x3c823479	0.015894162
122	0x3b380abc	0.002808257
123	0x3d551daf	0.05203026
124	0x3da61d55	0.081110634
125	0xbd208ac0	-0.039194822
126	0xbde681d0	-0.112552285
127	0x3d5e297e	0.05423879

mlp.4.bias f4 [2]
0	0xbe01f480	-0.12690926
1	0x3e2fb14c	0.17157477

exp_avg f4 [128, 15]
0	0x384a5b5c	4.8245638e-05
1	0x386d3aa4	5.6559817e-05
2	0x38d5c556	0.00010193388
3	0x38053edf	3.1768224e-05
4	0x38804d21	6.117882e-05
5	0x37afb9b9	2.094811e-05
6	0x37aeb539	2.0826805e-05
7	0x37b91455	2.2063186e-05
8	0xb7957a8d	-1.7819251e-05
9	0x377d8fe3	1.5113476e-05
10	0xb83bbd95	-4.4760836e-05
11	0xb8a75e66	-7.9807636e-05
12	0xb880a886	-6.1349056e-05
13	0xb8b0e600	-8.435175e-05
14	0xb7bbbf3d	-2.238119e-05
15	0xb9134796	-0.0001404568
16	0x3709cfed	8.214248e-06
17	0xba042f3f	-0.00050424406
18	0x369dbc29	4.7008693e-06
19	0x38d8a9eb	0.00010331332
20	0x3930a342	0.00016845486
21	0xb977d92e	-0.00023636661
22	0x39367296	0.00017399559
23	0x3973c13d	0.00023246273
24	0x39797c85	0.00023792878
25	0x390f0c06	0.00013642022
26	0x390dbc5d	0.00013516979
27	0x3910aa69	0.00013796393
28	0x392c879a	0.00016453714
29	0xb9b19d2d	-0.00033877176
30	0xb9857734	-0.0002545655
31	0xb982dea8	-0.00024961424
32	0xb9124f8b	-0.00013953277
33	0xb9c54b5e	-0.0003763092
34	0xb95b1769	-0.00020894188
35	0xb9b03dd7	-0.0003361541
36	0xb955b9f2	-0.00020382533
37	0xb91f3322	-0.0001518247
38	0xb90543ea	-0.00012709168
39	0xb9689ca4	-0.00022183597
40	0xb9b11e5d	-0.00033782693
41	0xb9cbbeea	-0.0003886142
42	0xb9cf4333	-0.00039532184
43	0xb99759a7	-0.0002886776
44	0xb800690e	-3.0615418e-05
45	0x26f5ecac	1.706444e-15
46	0x27259fc8	2.2984967e-15
47	0x27b4a307	5.013679e-15
48	0x27afa472	4.875055e-15
49	0x27b10668	4.9134315e-15
50	0x278df607	3.9402105e-15
51	0x28002e0e	7.115414e-15
52	0x28005fbb	7.126186e-15
53	0x27dc11ec	6.1081697e-15
54	0xa74ffd51	-2.8864344e-15
55	0xa59147c5	-2.5202123e-16
56	0xa59147c5	-2.5202123e-16
57	0xa59147c5	-2.5202123e-16
58	0xa59147c5	-2.5202123e-16
59	0xa37384de	-1.3201192e-17
60	0xba372ec4	-0.00069878646
61	0xba6184f4	-0.00086028804
62	0xba164a77	-0.0005733142
63	0xba1fd8ba	-0.00060976634
64	0xba464605	-0.00075635343
65	0xba2188f1	-0.00061620685
66	0xba475398	-0.0007603704
67	0xb9e2e5dc	-0.00043277338
68	0xba133028	-0.0005614781
69	0xb94ae7c4	-0.0001935056
70	0xb9d7f4b3	-0.0004119031
71	0xb9a382aa	-0.00031187135
72	0xb986b425	-0.0002569269
73	0xb9888ec4	-0.0002604631
74	0xb92dc306	-0.00016571218
75	0x3a011447	0.0004923981
76	0x39d1ce03	0.00040017077
77	0x39cc2f5a	0.00038945192
78	0x3a0d9ad1	0.00054017926
79	0x3a0b6569	0.00053175405
80	0x3a4d18eb	0.00078238425
81	0x3a3d705c	0.00072265207
82	0x3a5003ac	0.00079351175
83	0x3a5ab66e	0.0008343224
84	0x3a09da41	0.00052586576
85	0x3a283791	0.00064169714
86	0x3a44279b	0.00074827083
87	0x3a2da56b	0.00066240755
88	0x3a4ea01c	0.00078821345
89	0x39dbce85	0.00041924804
90	0xb9710c88	-0.0002298822
91	0xb90a209b	-0.00013172852
92	0xb9feb399	-0.00048580466
93	0xb9d3494c	-0.00040299667
94	0xba048807	-0.000505567
95	0xb9ca1f20	-0.00038551632
96	0xb9c30571	-0.00037197353
97	0x38a87bbc	8.0339116e-05
98	0xba01ed87	-0.0004956354
99	0x3840d46e	4.5974208e-05
100	0xb962b7b5	-0.00021621476
101	0xb9938814	-0.0002813941
102	0xb97e1a70	-0.00024233176
103	0xb9c52169	-0.0003759966
104	0xb9ba3dd3	-0.00035522747
105	0xb9418b73	-0.00018457863
106	0xb98278a3	-0.00024885414
107	0xb8201e31	-3.817509e-05
108	0xb8b33a44	-8.546238e-05
109	0xb90a4e5c	-0.00013189897
110	0xb89b052b	-7.3919386e-05
111	0xb72163b0	-9.619558e-06
112	0xb81f23a4	-3.7941747e-05
113	0xb8d5981a	-0.000101849626
114	0x38367708	4.3503038e-05
115	0xb822710b	-3.872909e-05
116	0xb8eaf1f2	-0.00011203055
117	0xb8b3eb31	-8.579193e-05
118	0xb8945be6	-7.074307e-05
119	0xb87f287b	-6.0834438e-05
120	0xb98d8811	-0.00026994993
121	0xb9cceda3	-0.00039086965
122	0xb9e0daf3	-0.0004288774
123	0xb9ed8810	-0.00045305537
124	0xba1c1291	-0.00059536943
125	0xb9c4418c	-0.0003743287
126	0xb9dd059f	-0.00042156593
127	0xb925c61a	-0.00015809425
128	0xba09d954	-0.00052585197
129	0x39cd4b79	0.00039156878
130	0xb9acad4e	-0.00032935519
131	0xba1a0d8a	-0.0005876651
132	0xba00026a	-0.0004883172
133	0xb9e60963	-0.00043876012
134	0xb9d08344	-0.00039770652
135	0xb7ed88f2	-2.8316372e-05
136	0xb8829c51	-6.227999e-05
137	0xb8dbaed9	-0.00010475302
138	0x388758ee	6.453866e-05
139	0xb8c4f3a9	-9.3913935e-05
140	0x39130dfb	0.0001402422
141	0xb9abfcca	-0.00032804004
142	0xb8c40614	-9.3471404e-05
143	0xb895a823	-7.1361916e-05
144	0x3916ca0d	0.00014380385
145	0xb88a2009	-6.58632e-05
146	0xb8e582ba	-0.00010943921
147	0xb8dd881e	-0.00010563455
148	0x3860e15c	5.3615644e-05
149	0xb9b5b49d	-0.00034657578
150	0xba08313c	-0.0005195325
151	0xba1a9624	-0.00058970065
152	0xba80b82c	-0.0009820512
153	0xba518ede	-0.0007994006
154	0xba55b818	-0.0008152737
155	0xba462f57	-0.0007560155
156	0xba5f248f	-0.00085122226
157	0xb9ca9a69	-0.00038643487
158	0xba48286e	-0.0007635419
159	0xb97fc842	-0.00024393297
160	0xb9f74be5	-0.00047168057
161	0xba0bcbc6	-0.0005332794
162	0xb9ea0b38	-0.00044640317
163	0xb9b3cff9	-0.00034296492
164	0xb9c9250b	-0.00038365307
165	0x38f5f5c0	0.00011728285
166	0x38bcc6b3	9.001549e-05
167	0xb8055f01	-3.179815e-05
168	0xb8044e58	-3.1544216e-05
169	0xb72c4e22	-1.0270191e-05
170	0xb78f0131	-1.7047483e-05
171	0xb7949a23	-1.771475e-05
172	0x35810835	9.613638e-07
173	0x3801edfd	3.097764e-05
174	0xb78f12f4	-1.7055754e-05
175	0xb740ab3d	-1.1483961e-05
176	0xb7911e01	-1.7299319e-05
177	0xb790adcf	-1.7247074e-05
178	0xb7905aae	-1.7208364e-05
179	0xb78a5a45	-1.6492917e-05
180	0xb977f4f2	-0.00023647005
181	0xb942caa3	-0.0001857677
182	0xb9eccca5	-0.000451659
183	0xb9a99b56	-0.00032349926
184	0xba0fd1ef	-0.00054862996
185	0xb959ce9c	-0.000207717
186	0xb924ebd2	-0.00015728109
187	0x3812ea00	3.5027042e-05
188	0xba19d283	-0.00058678555
189	0x39100b09	0.00013737021
190	0xb8e3acf3	-0.00010856418
191	0xb974c088	-0.00023341377
192	0xb860903e	-5.3540098e-05
193	0xb8a684e7	-7.940252e-05
194	0xb88e5f13	-6.7887966e-05
195	0xb9dc60d6	-0.00042033818
196	0xb9ee3676	-0.00045435474
197	0xb966d57b	-0.00022014037
198	0xb9d303f4	-0.00040248001
199	0xb9eddadf	-0.00045367234
200	0xb9b238ca	-0.00033993117
201	0xb98912dc	-0.00026144728
202	0xb9b9a588	-0.0003540928
203	0xb9a9f1d4	-0.00032414368
204	0xb907bb27	-0.00012944323
205	0xb9c4c0e4	-0.00037527748
206	0xb9f4edaf	-0.00046716395
207	0xb9b841b2	-0.00035144162
208	0xb9927bd0	-0.00027939538
209	0xb88721aa	-6.443572e-05
210	0xba09bcee	-0.0005254288
211	0xba54966c	-0.0008109573
212	0xba3b863a	-0.0007153485
213	0xba102a21	-0.0005499442
214	0xba20635e	-0.00061183225
215	0xb9d4818f	-0.0004053232
216	0xba2e0fc2	-0.00066399213
217	0xb9748248	-0.00023318187
218	0xb9cc179c	-0.00038927502
219	0xb97615a8	-0.00023468456
220	0xb95e2350	-0.00021184725
221	0xb8906592	-6.885374e-05
222	0xb90dcd64	-0.00013523322
223	0xb8080004	-3.242494e-05
224	0x38365d29	4.3478944e-05
225	0x3a72651d	0.00092466344
226	0x3a4fe251	0.0007930147
227	0xb992bbc5	-0.0002798719
228	0xb9215d06	-0.0001538881
229	0xb9009868	-0.00012263807
230	0xb8fcc08f	-0.00012052163
231	0xb909a402	-0.00013126436
232	0xb7dbfa99	-2.6223528e-05
233	0x3996318f	0.00028647154
234	0xb8fba134	-0.00011998639
235	0xb9016530	-0.00012340094
236	0xb9045f73	-0.00012624059
237	0xb90189ff	-0.00012353806
238	0xb8ff887f	-0.00012184772
239	0xb8f43ffd	-0.000116467454
240	0x39dbf43f	0.00041952913
241	0x3962d741	0.00021633228
242	0xb971db5e	-0.00023065272
243	0x390df6b0	0.00013538706
244	0x38780a20	5.9137237e-05
245	0x3824a7d2	3.925694e-05
246	0xb801bfe3	-3.0934705e-05
247	0x3918d9aa	0.00014576936
248	0x39189726	0.00014552157
249	0xb8faf9de	-0.0001196747
250	0x3815878b	3.5650603e-05
251	0x399104d0	0.0002766014
252	0x3984616c	0.00025249587
253	0x3986dec6	0.0002572445
254	0x3903d3bf	0.00012572015
255	0xb8ec01ed	-0.00011253716

exp_avg_sq f4 [128, 15]
0	0x34c99ab9	3.7551743e-07
1	0x34c52f9a	3.6728744e-07
2	0x34b50cb1	3.372311e-07
3	0x34b332c3	3.3378282e-07
4	0x34ab1ace	3.1870735e-07
5	0x34ba4830	3.4697723e-07
6	0x3491f5dc	2.718724e-07
7	0x348dddbf	2.6424638e-07
8	0x3483cbdf	2.4548987e-07
9	0x34543c3e	1.9765955e-07
10	0x3419d500	1.4326724e-07
11	0x3428fd6c	1.5738414e-07
12	0x33e1244f	1.04839835e-07
13	0x33964333	6.997143e-08
14	0x33879b20	6.3146445e-08
15	0x3586257a	9.994685e-07
16	0x358ec843	1.0638108e-06
17	0x3697daac	4.5256074e-06
18	0x361db2e7	2.3498958e-06
19	0x353a0546	6.9298073e-07
20	0x35236890	6.087439e-07
21	0x353f311c	7.122451e-07
22	0x3528da2e	6.290237e-07
23	0x355d7bcc	8.2509064e-07
24	0x35d84fd1	1.6116484e-06
25	0x3528742b	6.2753924e-07
26	0x3547e055	7.4459723e-07
27	0x356d73e6	8.8458034e-07
28	0x353e35e7	7.0858954e-07
29	0x357725ec	9.2069854e-07
30	0x36f31652	7.2445628e-06
31	0x36f75c2d	7.3719043e-06
32	0x37142395	8.829772e-06
33	0x371ab272	9.220663e-06
34	0x36ed53aa	7.07289e-06
35	0x36f18a14	7.198434e-06
36	0x36bfab07	5.712154e-06
37	0x36ee3972	7.0996402e-06
38	0x36da533d	6.5065965e-06
39	0x36e06cd6	6.6883904e-06
40	0x370c79ad	8.37298e-06
41	0x36ea2a2b	6.9786524e-06
42	0x36ec2bf7	7.0384663e-06
43	0x36d5ddd7	6.37372e-06
44	0x36ad4526	5.1638517e-06
45	0x33981823	7.082442e-08
46	0x33d57477	9.93977e-08
47	0x34454352	1.8371546e-07
48	0x3476827f	2.295801e-07
49	0x34819336	2.4135232e-07
50	0x344f6566	1.9315266e-07
51	0x34a3b32e	3.0491486e-07
52	0x34d2dc30	3.9275756e-07
53	0x34c345fe	3.6372506e-07
54	0x33e8f513	1.08479206e-07
55	0x32afe9ab	2.0478941e-08
56	0x32c736a0	2.319149e-08
57	0x32a76fa3	1.9492125e-08
58	0x32a7b5a4	1.952396e-08
59	0x324fa404	1.2086279e-08
60	0x360dc102	2.1122983e-06
61	0x360d1a5e	2.1025985e-06
62	0x363a8920	2.7795977e-06
63	0x363a4647	2.7757067e-06
64	0x361df26a	2.3535927e-06
65	0x361e128a	2.3554626e-06
66	0x3611f5cf	2.1749763e-06
67	0x3651cc25	3.1262255e-06
68	0x36062673	1.9989936e-06
69	0x35fcdee1	1.8840329e-06
70	0x360e48b7	2.1201975e-06
71	0x35ab1d73	1.2749064e-06
72	0x358f5759	1.0679752e-06
73	0x35b9caaf	1.3842563e-06
74	0x359407c8	1.1029124e-06
75	0x372a2dd4	1.014346e-05
76	0x3751ea57	1.2511932e-05
77	0x374530f4	1.1753513e-05
78	0x371cf853	9.356142e-06
79	0x37029bbd	7.7848645e-06
80	0x37038819	7.839896e-06
81	0x36e38d0a	6.7815463e-06
82	0x3726f73a	9.951933e-06
83	0x36eeff8a	7.1227014e-06
84	0x36e698de	6.8723302e-06
85	0x36f67b8d	7.3457545e-06
86	0x36ee20ec	7.0967853e-06
87	0x36b674c7	5.4376173e-06
88	0x36ba9476	5.560515e-06
89	0x36229987	2.4229246e-06
90	0x36bf590d	5.7026105e-06
91	0x36ac48de	5.1344823e-06
92	0x36b96380	5.525013e-06
93	0x36b6b3b2	5.444942e-06
94	0x36f48250	7.286937e-06
95	0x36ef5460	7.1325776e-06
96	0x36e35583	6.775082e-06
97	0x36be0a8b	5.6636686e-06
98	0x36d8d13d	6.46166e-06
99	0x36bf0338	5.6926183e-06
100	0x36d364eb	6.3000384e-06
101	0x36c597f4	5.888747e-06
102	0x36c18edf	5.7684806e-06
103	0x36e822ff	6.918213e-06
104	0x36b4164d	5.367014e-06
105	0x35821099	9.690585e-07
106	0x357f7821	9.5169713e-07
107	0x35d623df	1.5954682e-06
108	0x35b0136a	1.3118672e-06
109	0x3543593a	7.2773e-07
110	0x34c78365	3.716224e-07
111	0x34a6ddaf	3.1081206e-07
112	0x34be3e49	3.5435576e-07
113	0x34bc48be	3.5070656e-07
114	0x34f3c5c3	4.5406168e-07
115	0x34d240e4	3.9162762e-07
116	0x348fd608	2.6791554e-07
117	0x349f05ab	2.9620182e-07
118	0x34963018	2.797467e-07
119	0x34a5c7b8	3.087896e-07
120	0x370b3772	8.297955e-06
121	0x37128352	8.7328535e-06
122	0x3718ffe5	9.119486e-06
123	0x37095c91	8.187389e-06
124	0x3714a7c3	8.8605475e-06
125	0x37161872	8.946388e-06
126	0x3711cab2	8.689867e-06
127	0x3705f11e	7.983557e-06
128	0x3707229d	8.054686e-06
129	0x370224ab	7.757141e-06
130	0x37142686	8.830457e-06
131	0x37108d71	8.616001e-06
132	0x37020ee8	7.752074e-06
133	0x370d709f	8.430477e-06
134	0x36d5b71c	6.3692114e-06
135	0x35ab197a	1.2747907e-06
136	0x35ee4a2c	1.7753969e-06
137	0x36246781	2.4498152e-06
138	0x35e208ef	1.6840912e-06
139	0x35c21b8b	1.4462142e-06
140	0x35c59774	1.4721722e-06
141	0x35e4b2eb	1.7039396e-06
142	0x35e8033b	1.7286287e-06
143	0x35bf0e4d	1.4234771e-06
144	0x35ba15e7	1.3864454e-06
145	0x35c65ef6	1.4779787e-06
146	0x35d5fdf2	1.5943644e-06
147	0x35b45724	1.3436406e-06
148	0x35d54bc1	1.5891784e-06
149	0x35b6571d	1.358541e-06
150	0x37913de2	1.7314163e-05
151	0x378b07c6	1.6573711e-05
152	0x378eef96	1.7039285e-05
153	0x37841fbe	1.5750407e-05
154	0x378c69ab	1.6738506e-05
155	0x3772b79f	1.4467077e-05
156	0x3767d690	1.381863e-05
157	0x37559f8d	1.2732938e-05
158	0x374069b9	1.1468707e-05
159	0x373b6b20	1.1171011e-05
160	0x373956d8	1.1047079e-05
161	0x3732372e	1.0622474e-05
162	0x37361ef6	1.0855254e-05
163	0x37455299	1.1761346e-05
164	0x370dc645	8.450418e-06
165	0x348ebe6c	2.658811e-07
166	0x3407474e	1.2598795e-07
167	0x3389535d	6.394723e-08
168	0x33b06719	8.214392e-08
169	0x33f49902	1.13899674e-07
170	0x3316a102	3.5071032e-08
171	0x33027a4b	3.037921e-08
172	0x33a094ff	7.477683e-08
173	0x335600b0	4.9826383e-08
174	0x331efe13	3.701832e-08
175	0x338869e9	6.3522585e-08
176	0x335204a6	4.8898663e-08
177	0x33163fde	3.4982683e-08
178	0x331964a7	3.571463e-08
179	0x337ceb0a	5.888709e-08
180	0x3717cc1a	9.0478225e-06
181	0x371d18fc	9.363746e-06
182	0x371bb395	9.280532e-06
183	0x37136b5c	8.786879e-06
184	0x371abedd	9.223554e-06
185	0x3724af05	9.815912e-06
186	0x371cd6d6	9.348345e-06
187	0x3707b642	8.089062e-06
188	0x371b7cba	9.26776e-06
189	0x3717eb43	9.0550775e-06
190	0x3704948d	7.9024e-06
191	0x370f1dae	8.5303745e-06
192	0x36fd51f6	7.549529e-06
193	0x3705b293	7.968995e-06
194	0x36c57149	5.8842456e-06
195	0x3696e20b	4.496663e-06
196	0x36ce267d	6.143759e-06
197	0x36cce520	6.1063474e-06
198	0x36cee9cf	6.1664973e-06
199	0x36c6e5e5	5.927623e-06
200	0x36abefbb	5.1241054e-06
201	0x369ef7cc	4.7376143e-06
202	0x36d1e7be	6.2556637e-06
203	0x36b132e6	5.2809364e-06
204	0x36a46d34	4.900294e-06
205	0x36b4cc48	5.3881995e-06
206	0x36aef635	5.2142664e-06
207	0x36b84365	5.491473e-06
208	0x36997e29	4.5744423e-06
209	0x365e0b83	3.3087279e-06
210	0x373d91f3	1.1299259e-05
211	0x3740e4eb	1.1497391e-05
212	0x3744dbb2	1.1733662e-05
213	0x3731e319	1.0602897e-05
214	0x372953e1	1.0092715e-05
215	0x3718fc69	9.118675e-06
216	0x371edc61	9.468845e-06
217	0x37096125	8.188455e-06
218	0x37036b74	7.833227e-06
219	0x370a2029	8.232929e-06
220	0x36e11067	6.707432e-06
221	0x36ea9c17	6.9919147e-06
222	0x36d8a383	6.456337e-06
223	0x36d67b17	6.3920265e-06
224	0x3688a6e2	4.0725436e-06
225	0x37850fda	1.5862217e-05
226	0x36eae30d	7.0001756e-06
227	0x36838cd6	3.9204997e-06
228	0x35da0e47	1.6246421e-06
229	0x352bfda5	6.4071565e-07
230	0x35373a97	6.825807e-07
231	0x3670b220	3.586647e-06
232	0x352542a5	6.156427e-07
233	0x35166f58	5.604138e-07
234	0x359027a7	1.0740376e-06
235	0x352413f5	6.11238e-07
236	0x350e85b0	5.3093663e-07
237	0x34e12c98	4.1941962e-07
238	0x352ab013	6.3586157e-07
239	0x357f33b4	9.507014e-07
240	0x36d34e02	6.2973713e-06
241	0x36c44371	5.8491064e-06
242	0x36bfe7b2	5.7192165e-06
243	0x36bb35e1	5.5793066e-06
244	0x36b064b8	5.256934e-06
245	0x365d33d8	3.2961743e-06
246	0x363f1a67	2.8476586e-06
247	0x365dc119	3.3043964e-06
248	0x35feabb3	1.8974446e-06
249	0x35b26f5c	1.3294443e-06
250	0x35cd479b	1.529453e-06
251	0x35a1ae41	1.2046149e-06
252	0x35e7bb5d	1.7265371e-06
253	0x360a4444	2.0603338e-06
254	0x35a6eb31	1.2436413e-06
255	0x353ea640	7.102244e-07

exp_avg f4 [128]
0	0x367ff86f	3.8142568e-06
1	0xb8fb5a6f	-0.00011985457
2	0x39f269d1	0.00046236676
3	0x259147c5	2.5202123e-16
4	0x398e2b89	0.00027116787
5	0x3890f41d	6.911925e-05
6	0x39d3d23a	0.00040401687
7	0x38b8a789	8.8050096e-05
8	0x3a51a67c	0.00079975254
9	0x38fdc0d8	0.000120999
10	0x3a6b1640	0.0008967854
11	0x37905a0d	1.720807e-05
12	0x3a2e1c46	0.00066417863
13	0x3a0f2ab6	0.00054613815
14	0x3a049ee1	0.0005059075
15	0x38ff88c3	0.000121848214
16	0x392a58b2	0.00016245505
17	0xb667788c	-3.449185e-06
18	0xb51f2e44	-5.929944e-07
19	0x3939cdc0	0.00017719623
20	0x364f733a	3.0912474e-06
21	0xb85b5f66	-5.2302516e-05
22	0x3badc3f6	0.0053029014
23	0x37d617db	2.5521897e-05
24	0x3c01874c	0.007905792
25	0x3b52a2fa	0.0032140599
26	0x37893c1d	1.6359665e-05
27	0x384713f6	4.7463887e-05
28	0x386bcc4f	5.6218643e-05
29	0xb68b2f6c	-4.1480434e-06
30	0x3a9cf7c0	0.0011975691
31	0x389d2460	7.493119e-05
32	0x38525fdd	5.015718e-05
33	0x39e15b5f	0.0004298342
34	0x3863a92f	5.4278582e-05
35	0x249eb0a0	6.882079e-17
36	0xb7010f15	-7.692511e-06
37	0x3a297c68	0.00064653764
38	0x3b36438e	0.0027811262
39	0xb9c57d07	-0.0003766792
40	0x22ec4ff9	6.4052603e-18
41	0xb9462dfc	-0.00018899882
42	0x3c0854af	0.008320971
43	0x39a96c6f	0.0003231498
44	0xb4f01933	-4.4721818e-07
45	0x391e0af3	0.00015072133
46	0x396436dc	0.00021764211
47	0x3a0a83ad	0.00052839034
48	0x3a016bd9	0.000493703
49	0x39459fd5	0.00018846926
50	0xb81025b0	-3.4367375e-05
51	0xa018a171	-1.2928317e-19
52	0x365d4634	3.297243e-06
53	0x39f73225	0.00047148872
54	0x399d0e4f	0.00029956034
55	0x39b24b54	0.0003400693
56	0xb65b91fb	-3.2718515e-06
57	0x38c12d2a	9.2113696e-05
58	0x3b25c04f	0.0025291627
59	0x36a5204f	4.9211444e-06
60	0x266062e4	7.7849634e-16
61	0xb7294826	-1.0089983e-05
62	0x39b92fb7	0.000353215
63	0x3b3942ff	0.0028268693
64	0x3a396385	0.00070720195
65	0xb824830c	-3.9222694e-05
66	0x3a099eb8	0.0005249786
67	0x399221c6	0.00027872453
68	0x9fd8610b	-9.16401e-20
69	0x37959c03	1.7834833e-05
70	0x3a096ad4	0.0005242054
71	0x3a37ffd3	0.0007019017
72	0xb88754d0	-6.453099e-05
73	0x37c1240a	2.3024175e-05
74	0x38efc7bd	0.00011433612
75	0x381264f4	3.4903132e-05
76	0x3a9fca10	0.0012190957
77	0xb966d772	-0.00022014769
78	0x383251a3	4.2514537e-05
79	0x351001c3	5.3646744e-07
80	0x3a28efad	0.0006444406
81	0x38aa8014	8.130088e-05
82	0x3b9b1180	0.004732311
83	0x3a7351bb	0.0009281893
84	0x37533894	1.2589753e-05
85	0x37a83502	2.0051844e-05
86	0xb85fe0d9	-5.337675e-05
87	0x398d7387	0.0002697969
88	0x3908656d	0.00013007755
89	0x2486200c	5.8167526e-17
90	0xb3af4ccf	-8.163044e-08
91	0xb8db8cda	-0.000104689694
92	0x393c108b	0.0001793524
93	0x3bbaefe2	0.005704866
94	0x3be47dab	0.0069729886
95	0x3ac1c379	0.0014782987
96	0x3a03f3ad	0.0005033564
97	0x2713c068	2.0504652e-15
98	0x38286aaa	4.015366e-05
99	0x361b5e0f	2.315155e-06
100	0xb71a29d9	-9.188859e-06
101	0xb68a5e2c	-4.1236835e-06
102	0x3956ec4f	0.00020496662
103	0x39db65ec	0.00041846873
104	0x38c141aa	9.215188e-05
105	0x386918ba	5.5574557e-05
106	0x3bf281f3	0.007400745
107	0x39ad4ae1	0.0003305292
108	0x3ae1181d	0.0017173324
109	0x3baf3e7e	0.005348026
110	0x39b13c62	0.0003380506
111	0x38a2167c	7.72895e-05
112	0xb8a005e6	-7.630493e-05
113	0x3c301b97	0.010748765
114	0x39ea3879	0.00044674033
115	0x3a3f0e6c	0.0007288221
116	0x3a357e06	0.0006923381
117	0x388535ff	6.351992e-05
118	0x3bc3edd0	0.005979277
119	0x385fc54b	5.3351087e-05
120	0x39725673	0.00023111123
121	0x3ac270fd	0.0014834699
122	0x381fc1d2	3.8089063e-05
123	0x3a162d18	0.00057287654
124	0x391f6c6c	0.00015203812
125	0x3a321d08	0.0006794487
126	0xb609c047	-2.052651e-06
127	0xb5838d20	-9.801333e-07

exp_avg_sq f4 [128]
0	0x31f54984	7.138796e-09
1	0x354f6466	7.725961e-07
2	0x377732e1	1.4734193e-05
3	0x313a4d14	2.7110376e-09
4	0x35bdb662	1.4134678e-06
5	0x3572c799	9.044248e-07
6	0x372149b2	9.613506e-06
7	0x34aeb485	3.254137e-07
8	0x379fcff0	1.9051105e-05
9	0x35feee9c	1.8993919e-06
10	0x37bf1c2a	2.278209e-05
11	0x33283149	3.9160373e-08
12	0x37962a12	1.7900984e-05
13	0x3732fd7d	1.0668647e-05
14	0x37214fb3	9.614904e-06
15	0x35223203	6.042248e-07
16	0x3544ea5e	7.335674e-07
17	0x3212cdfc	8.545154e-09
18	0x3116eeb9	2.196357e-09
19	0x3716ead2	8.99537e-06
20	0x358c290e	1.0442761e-06
21	0x3542801a	7.2457044e-07
22	0x3c997fd7	0.018737717
23	0x33c49fbe	9.156018e-08
24	0x3d2d7072	0.042343564
25	0x3b4ad0a6	0.0030947118
26	0x33f2814c	1.1292522e-07
27	0x338da6a2	6.5961345e-08
28	0x353928ef	6.8977437e-07
29	0x324cdd88	1.1924733e-08
30	0x39919bbf	0.00027772595
31	0x3570a739	8.965031e-07
32	0x36bb8308	5.5882883e-06
33	0x3705309a	7.938734e-06
34	0x35201f0f	5.964984e-07
35	0x34a9c7fb	3.1624208e-07
36	0x3273228b	1.4152316e-08
37	0x378dedc1	1.6919223e-05
38	0x3ba50410	0.0050358847
39	0x370838fd	8.1195e-06
40	0x3283c2bd	1.5338964e-08
41	0x353c81d1	7.0224365e-07
42	0x3d2df4be	0.042469732
43	0x36ceeff0	6.167211e-06
44	0x3425b562	1.5432809e-07
45	0x36114ebf	2.165252e-06
46	0x3709a15b	8.203405e-06
47	0x3779d99d	1.4892224e-05
48	0x3798ea65	1.822896e-05
49	0x35257c63	6.1648296e-07
50	0x3391d934	6.791598e-08
51	0x307ae233	9.127092e-10
52	0x31513b7f	3.0447322e-09
53	0x379360ed	1.75689e-05
54	0x36aef18d	5.2137243e-06
55	0x37e01a8e	2.6715246e-05
56	0x321fdfae	9.305877e-09
57	0x350cd40f	5.246265e-07
58	0x3b55e72e	0.0032639015
59	0x339b7305	7.238672e-08
60	0x31e3c47f	6.6289085e-09
61	0x31248156	2.393866e-09
62	0x37165bdc	8.962084e-06
63	0x3b880e8e	0.0041521257
64	0x37a98462	2.0208015e-05
65	0x35c4e6b7	1.4670285e-06
66	0x37c07635	2.2943228e-05
67	0x365de1a2	3.3062902e-06
68	0x30f9a3ce	1.816369e-09
69	0x33e2beaf	1.055863e-07
70	0x37422622	1.157218e-05
71	0x379134de	1.7309965e-05
72	0x3591af30	1.0854328e-06
73	0x35378b19	6.8375226e-07
74	0x36934130	4.38853e-06
75	0x337fd014	5.956106e-08
76	0x38193b9c	3.6533558e-05
77	0x32de265f	2.586165e-08
78	0x325b3bf2	1.2761108e-08
79	0x3488943d	2.5439832e-07
80	0x37895e07	1.6375458e-05
81	0x349cf4d5	2.9235403e-07
82	0x3c2898ea	0.010290364
83	0x3895d9c2	7.145434e-05
84	0x32a16054	1.8786672e-08
85	0x343938d6	1.7250144e-07
86	0x357b1222	9.3531173e-07
87	0x3740d836	1.1494432e-05
88	0x34ca6209	3.7696762e-07
89	0x34bf6ead	3.565705e-07
90	0x33cb5666	9.46864e-08
91	0x332bfc6b	4.0043613e-08
92	0x36efcfc3	7.1469417e-06
93	0x3cc387b7	0.023868425
94	0x3d263201	0.04057503
95	0x38cda22c	9.8053686e-05
96	0x37b57911	2.1633257e-05
97	0x325b2b8d	1.275738e-08
98	0x326db47b	1.3836252e-08
99	0x33b36b03	8.3548024e-08
100	0x33358c75	4.227009e-08
101	0x34b2b50e	3.3286818e-07
102	0x3988dd85	0.00026104986
103	0x37921d0d	1.7418084e-05
104	0x355aba45	8.1482386e-07
105	0x3445fd2f	1.8439162e-07
106	0x3cfb5cd8	0.03068392
107	0x36678413	3.449856e-06
108	0x3a81fe95	0.000991779
109	0x3cd3672c	0.025806032
110	0x35eb7c96	1.7545124e-06
111	0x3600e4ef	1.9206743e-06
112	0x36db94d3	6.544034e-06
113	0x3d942e03	0.072353385
114	0x376ba97d	1.4046554e-05
115	0x37a911da	2.0154683e-05
116	0x37a10ec6	1.9199575e-05
117	0x33bd91c5	8.827514e-08
118	0x3bfbbe7a	0.0076826187
119	0x3397a8b0	7.0621695e-08
120	0x371356ed	8.782122e-06
121	0x39bb47c4	0.0003572089
122	0x3474bc08	2.2792676e-07
123	0x378b1142	1.6578128e-05
124	0x3760a6c8	1.3390272e-05
125	0x37be20c8	2.266503e-05
126	0x32d19aa5	2.4401126e-08
127	0x333fc487	4.4649394e-08
